outputs/baseline/baseline_best.pt (torch, 181025 bytes, 8 tensors)

net.0.weight f4 [256, 10]
0	0x3e76e092	0.24109104
1	0x3e694a13	0.22782163
2	0xb9d8ee9d	-0.0004137651
3	0x3e9a1cff	0.30100247
4	0xbe092f5c	-0.13396972
5	0x3da4351d	0.08017943
6	0xbe6bb8b5	-0.23019679
7	0x3e625bfb	0.221054
8	0x3eed2521	0.4631739
9	0xbe8433f2	-0.2582088
10	0x3ebe082b	0.37115607
11	0x3d95d46a	0.073159054
12	0x3e4e32ca	0.20136562
13	0xbc42aead	-0.011882466
14	0x3e3d94b7	0.18513761
15	0x3d16c0e6	0.036805056
16	0x3e39b9ba	0.18137255
17	0xbc8a32d4	-0.01686994
18	0xbdc3fe8c	-0.09570035
19	0x3e2c710b	0.16839997
20	0xbe8aea48	-0.27131867
21	0xbc44fe32	-0.0120234955
22	0xbe1fca6c	-0.15604562
23	0x3e13fddd	0.1445231
24	0xbe385b3c	-0.18003553
25	0xbe8aa1ff	-0.27076718
26	0x3df11995	0.117724575
27	0xbda888f4	-0.08229247
28	0x3cf5c301	0.030000212
29	0xbe292e25	-0.16521509
30	0x3ee37dd9	0.44431952
31	0xbe3ac227	-0.18238126
32	0x3e32ff68	0.17480242
33	0xbbca77d5	-0.006178836
34	0xbe36db5e	-0.1785712
35	0x3e47c82e	0.19509956
36	0xbcde65ab	-0.027148088
37	0x3e5779f8	0.21042621
38	0x3e068599	0.13136901
39	0xbe0bf60c	-0.13668078
40	0x3d974ad2	0.07387318
41	0xbd934612	-0.07191099
42	0x3db26af3	0.08711805
43	0x3e49bab7	0.19700132
44	0x3e023715	0.12716325
45	0xbd5d3cde	-0.054013126
46	0x3de9bbf7	0.114128046
47	0x3c6ca25e	0.014443008
48	0x3e19d9d9	0.15024509
49	0xbe19e026	-0.15026912
50	0xbebc848d	-0.36819878
51	0xbe88156f	-0.26578853
52	0xbdd29d2e	-0.10283886
53	0x3e183d2f	0.1486709
54	0xbc781caf	-0.015143557
55	0x3dd4b40c	0.10385904
56	0x3df58853	0.119888924
57	0x3d2b9394	0.04188879
58	0x3e9939b0	0.29926825
59	0xbe82341f	-0.2543039
60	0x3dc2ae1e	0.095058665
61	0xbe47f6bf	-0.1952772
62	0xbd24ec51	-0.04026443
63	0xbe4cdff5	-0.20007308
64	0x3d240948	0.040047914
65	0xbe05539a	-0.13020173
66	0x3e93f309	0.2889636
67	0xbddce077	-0.10785001
68	0xbe37f6b7	-0.17965208
69	0xbe6b529f	-0.22980736
70	0x3e94de7a	0.29075986
71	0x3d1b496e	0.037911825
72	0x3e8a23de	0.2698049
73	0xbe83b77f	-0.25725934
74	0xbec0d3af	-0.37661502
75	0xbe240b71	-0.1601999
76	0xbe673174	-0.22577459
77	0x3e108a6a	0.14115301
78	0x3e41ecfd	0.1893806
79	0x3e9ac54a	0.30228645
80	0xbeb8d72b	-0.3610166
81	0xbe6e849a	-0.23292771
82	0x3e7950d5	0.24347241
83	0xbd9e0892	-0.077164784
84	0x3e3cc69f	0.18435143
85	0xbcb07636	-0.021540742
86	0x3dd54a18	0.10414523
87	0xbe613d8f	-0.21996139
88	0xbe7c93cc	-0.24665755
89	0x3d1c2934	0.03812523
90	0xbce4a039	-0.027908431
91	0xbd176c0b	-0.036968272
92	0x3d9e2df1	0.077236064
93	0x3dd78a74	0.10524455
94	0xbdb882f8	-0.09009355
95	0xbe817bdb	-0.25289807
96	0x3ea192a8	0.31557202
97	0x3d813174	0.063082606
98	0xbec24f05	-0.37950912
99	0xbe7fe640	-0.24990177
100	0xbe8245e1	-0.25443938
101	0x3dc666dd	0.09687588
102	0x3c8cbeeb	0.01718088
103	0xbe138747	-0.14407073
104	0xbd2a17a0	-0.041526437
105	0xbeacefea	-0.3377679
106	0xbe76f8bd	-0.24118324
107	0xbdf17ae8	-0.11791021
108	0xbea0503a	-0.31311208
109	0xbe2581a2	-0.16162732
110	0x3eca5b53	0.395228
111	0x3d3c6d44	0.04600264
112	0x3d7f7352	0.062365837
113	0xbecbb97d	-0.39789954
114	0xbe5fdeb1	-0.21862294
115	0xbd26fab7	-0.040766444
116	0x3de0f8ff	0.10984992
117	0xbe5bb12a	-0.21454301
118	0xbdbeb13a	-0.09311147
119	0xbdbe42ee	-0.092901096
120	0xbdc8d2b9	-0.09805817
121	0xbe616f67	-0.22015153
122	0xbdb4e882	-0.0883341
123	0xbe2337f8	-0.15939319
124	0xbdbaae96	-0.09115331
125	0xbe571733	-0.21004944
126	0xbdb63590	-0.08896935
127	0xbe45be83	-0.19310956
128	0x3e6d8c08	0.23197949
129	0xbe24563f	-0.16048525
130	0x3e9fdd84	0.3122369
131	0x3e2b0062	0.16699365
132	0xbe8cdf92	-0.2751432
133	0x3dfe0af9	0.124044366
134	0xbe7b6dc9	-0.24553598
135	0xbe1013af	-0.14070009
136	0xbea344f8	-0.31888556
137	0xbe6b6ac4	-0.22989947
138	0x3de19fcc	0.11016807
139	0x3d132c30	0.035930812
140	0x3e40e7c2	0.18838409
141	0xbe79142c	-0.24324101
142	0x3e6d869f	0.23195885
143	0xbec2e27a	-0.38063413
144	0xbe340d4f	-0.17583202
145	0x3dce1be6	0.10063915
146	0x3d07fe03	0.03320123
147	0x3e994ca4	0.29941285
148	0x3e8d2a1d	0.27571192
149	0xbe481d35	-0.19542392
150	0x3e8732a9	0.26405838
151	0xbda25ad7	-0.079274826
152	0xbd1bb8f5	-0.038018186
153	0xbea61475	-0.32437482
154	0x3e94af74	0.2904011
155	0xbe61aabc	-0.22037786
156	0x3e0a1fd4	0.13488704
157	0x3da6ed0e	0.08150683
158	0x3dd90d82	0.105982795
159	0xbe1fb95c	-0.15598053
160	0x3ee8d7e3	0.45477208
161	0x3dece1e4	0.11566523
162	0x3d983f87	0.07433992
163	0xbe9aa5a9	-0.30204514
164	0x3d19cb2c	0.037547275
165	0x3ce1b04d	0.027549887
166	0xbd1e5038	-0.03865072
167	0x3e94920c	0.29017675
168	0x3e16d428	0.14729369
169	0xbe175c3e	-0.14781281
170	0xbe7c5bec	-0.2464444
171	0x3d2ae5cd	0.04172306
172	0x3e0285aa	0.12746301
173	0xbd38e351	-0.04513866
174	0xbdf9daf3	-0.121999644
175	0xbdcdee44	-0.10055211
176	0xbe0a260e	-0.13491079
177	0xbd4c8ceb	-0.049939077
178	0x3ecb077c	0.39654148
179	0xbe4dff24	-0.2011686
180	0x3e0b69dd	0.13614602
181	0x3e76f22f	0.24115823
182	0x3d8325b5	0.064036764
183	0xbe16eb64	-0.14738232
184	0x3e61b33c	0.22041029
185	0x3ead19bb	0.33808693
186	0x3ddb18e2	0.106981054
187	0xbbf4f3f8	-0.0074753724
188	0xbd2a5291	-0.041582648
189	0x3d2fe9f8	0.04294774
190	0xbe166e7e	-0.14690587
191	0xbe4acab5	-0.19803889
192	0x3e727774	0.2367838
193	0x3e10618a	0.14099708
194	0xbe08d1db	-0.13361304
195	0xbdb8f20d	-0.090305425
196	0xbdb87598	-0.09006804
197	0x3d9dba09	0.07701499
198	0xbcacbea3	-0.021086996
199	0x3e25de7b	0.16198151
200	0xbf00f1f3	-0.50369185
201	0xbe1d50f4	-0.15362912
202	0x3eae5ffa	0.340576
203	0xbc9c2934	-0.019062616
204	0x3d95f3d0	0.07321894
205	0xbdc41a98	-0.09575385
206	0xbd600945	-0.05469634
207	0xbe1009a0	-0.14066172
208	0xbe40ecff	-0.18840407
209	0x3dbe127f	0.092808716
210	0x3e01772c	0.12643117
211	0x3eb443ba	0.3520792
212	0xbe780e14	-0.2422412
213	0xbdbb6763	-0.09150579
214	0xbdd7bcb4	-0.10534039
215	0x3edf8772	0.43658024
216	0x3cc99b30	0.024610132
217	0xbd91044c	-0.07080898
218	0x3dc6933a	0.0969605
219	0xbc6c886c	-0.014436822
220	0xbe81e6d0	-0.25371408
221	0x3e85ebb3	0.26156387
222	0xbe2d8c12	-0.16947964
223	0x3ceeeb60	0.02916497
224	0xbe831e99	-0.25609282
225	0x3d91cfde	0.07119726
226	0x3e086735	0.1332062
227	0x3e2bdd41	0.1678362
228	0xbea48f22	-0.32140452
229	0xbe940578	-0.28910422
230	0xbe9aaa76	-0.30208176
231	0x3e1a4a4a	0.15067402
232	0x3e54d343	0.20783715
233	0x3e85c107	0.2612383
234	0x3d467bee	0.048458032
235	0x3d939224	0.072056085
236	0x3a6438ec	0.0008705992
237	0xbe43ae62	-0.1910949
238	0xbea16b5b	-0.31527218
239	0xbe46ae7f	-0.19402502
240	0x3d3736cf	0.044730004
241	0xbf04192f	-0.5160093
242	0xbd4c6f67	-0.04991093
243	0xbe77b18d	-0.24188824
244	0xbe48f840	-0.1962595
245	0xbe364ed5	-0.1780351
246	0xbe2df0f0	-0.16986442
247	0x3e08a461	0.13343956
248	0x3cdf084c	0.027225636
249	0x3e0f4df0	0.13994575
250	0xbe2f5591	-0.17122485
251	0xbf06d23a	-0.5266453
252	0xbdcb6833	-0.09931984
253	0xbe5bbb3a	-0.2145814
254	0xbdfe6b83	-0.1242285
255	0xbe4df93a	-0.20114604

net.0.bias f4 [256]
0	0xbe6c6cab	-0.23088329
1	0xbdcfd2e9	-0.1014765
2	0x3e8e1098	0.27747035
3	0x3d86a4c5	0.06574396
4	0xbe90b192	-0.28260475
5	0xbcee9ded	-0.02912804
6	0xbd5e6774	-0.05429788
7	0x3e84fe91	0.2597547
8	0x3df177b0	0.11790407
9	0x3b19fa31	0.0023495073
10	0x3c7cf1c8	0.0154385045
11	0x3dca2c94	0.09871784
12	0xbda2e0b8	-0.07953018
13	0x3ea794c7	0.32730696
14	0x3e03b669	0.12862553
15	0xbe6ee89f	-0.23330925
16	0xbe0e79d1	-0.13913657
17	0xbec213bb	-0.37905678
18	0xbe55a0e8	-0.20862162
19	0x3d3abb9a	0.045589067
20	0x3e08985c	0.1333937
21	0xbe32be9e	-0.17455527
22	0x3e6f110d	0.23346348
23	0xbea8494c	-0.3286842
24	0xbdf6635f	-0.12030672
25	0xbe5ac175	-0.2136286
26	0xbd04972a	-0.032370724
27	0x3d6f9e40	0.05850053
28	0x3eabe235	0.3357102
29	0xbdd20cfd	-0.102563836
30	0xbe99da6c	-0.30049455
31	0xbd2702b0	-0.040774047
32	0x3e7d5285	0.2473851
33	0x3d8f90e1	0.07010055
34	0x3dc85f95	0.09783856
35	0x3d8ca48f	0.068673246
36	0x3ec742ce	0.38918155
37	0x3e6f9e56	0.23400244
38	0x3dcf01a5	0.101077355
39	0xbd1777ef	-0.036979612
40	0xbe2db991	-0.16965319
41	0xbe1f1b00	-0.15537643
42	0x3c806ed5	0.015677849
43	0x3e815ef2	0.2526775
44	0xbe92e719	-0.2869194
45	0x3e3e0bfc	0.18559259
46	0xbd9881c0	-0.07446623
47	0xbdd47c83	-0.10375311
48	0xbd9a9868	-0.075486004
49	0xbc498f13	-0.012302178
50	0xbb467dbc	-0.0030287346
51	0xbdb251c0	-0.08706999
52	0x3de6deb8	0.11272949
53	0xbe89640c	-0.26834142
54	0xbe9415b9	-0.28922823
55	0x3db95d87	0.09051042
56	0x3e308a34	0.1724022
57	0x3dae8772	0.08521928
58	0x3de86cd4	0.11348882
59	0xbeb9ce2e	-0.36290115
60	0x3d7cac6f	0.061687883
61	0xbe06ec24	-0.13176018
62	0xbe8ab0df	-0.27088067
63	0x3df26f7f	0.118376724
64	0xbe8cf709	-0.27532223
65	0x3e7196fb	0.2359275
66	0xbe557296	-0.20844492
67	0x3bc6061a	0.006043208
68	0x3dbd8628	0.09254104
69	0xbe534964	-0.20633465
70	0x3e00baf6	0.1257132
71	0xbe08a09d	-0.13342519
72	0x3de2db37	0.11076968
73	0x3e310d63	0.17290263
74	0xbeb66aac	-0.3562826
75	0xbd0f86a3	-0.03504051
76	0x3ddc1e3f	0.107479565
77	0xbc9101b7	-0.017701013
78	0x3caa861a	0.020815898
79	0x3de3853c	0.11109397
80	0xbdd657fe	-0.10466002
81	0x3d05e8e0	0.03269279
82	0x3e87aa96	0.26497334
83	0xbcc5064f	-0.02405086
84	0xbe900ecc	-0.2813629
85	0xbd967f9f	-0.073485605
86	0xbea97c68	-0.33102727
87	0xbeb2848f	-0.3486676
88	0x3dd66e06	0.10470204
89	0xbddc1cb1	-0.1074766
90	0xbe8e8287	-0.2783396
91	0x3d0e4591	0.034734312
92	0x3de3a14d	0.1111475
93	0xbe84d2b9	-0.2594202
94	0xbe93989c	-0.2882737
95	0xbeb33a08	-0.35005212
96	0xbd55cc4b	-0.052196782
97	0xbe7d92a6	-0.24762973
98	0xbd16e620	-0.036840558
99	0xbe409e58	-0.18810403
100	0xbde0a92a	-0.109697655
101	0xbe30acb2	-0.17253378
102	0xbe52e75f	-0.20596074
103	0xbe398d6b	-0.18120353
104	0x3d48aefc	0.048995003
105	0xbeaa6b17	-0.33284828
106	0xbe436f29	-0.19085373
107	0x3e4c7abf	0.19968699
108	0xbd896f1e	-0.06710647
109	0xbe3e24ed	-0.18568774
110	0xbdbd067c	-0.092297524
111	0x3e435a97	0.19077526
112	0xbeac7715	-0.33684602
113	0xbe9acecd	-0.302359
114	0xbea00c73	-0.31259498
115	0x3d723206	0.059129737
116	0xbbd056a7	-0.006357986
117	0xbe9247e9	-0.28570488
118	0x3e4ffb5f	0.20310734
119	0xbea08a8f	-0.31355712
120	0x3ec1f975	0.37885633
121	0xbe304fa4	-0.1721788
122	0xbc9426f1	-0.018084975
123	0xbdcf0c35	-0.1010975
124	0xbe0e4377	-0.13892923
125	0x3e9a46d5	0.30132166
126	0xbe883235	-0.26600805
127	0x3afd69ac	0.0019333861
128	0xbe8c423f	-0.27394292
129	0xbd30ef9e	-0.043197267
130	0x3e9a99d5	0.3019549
131	0x3eafb5d0	0.343184
132	0x3e1b05a7	0.15138875
133	0xbdd19def	-0.102352016
134	0x3ecebaff	0.40377042
135	0x3dd05ade	0.101735815
136	0x3e29a84e	0.1656811
137	0xbe500dd2	-0.20317772
138	0xbc3ab73f	-0.011396228
139	0xbe631a76	-0.22178063
140	0x3e995ce1	0.29953673
141	0x3d8ff079	0.070282884
142	0xbec4742f	-0.3836989
143	0x3c8fde42	0.017562035
144	0xbe5e30e5	-0.2169834
145	0x3cff3c11	0.031156572
146	0x3dc99e06	0.09844594
147	0xbe41a5b2	-0.18910864
148	0x3da60125	0.08105687
149	0xbe40bd37	-0.1882218
150	0xbc380b6d	-0.011233193
151	0xbeabed5e	-0.33579534
152	0xbe2ca61a	-0.16860238
153	0x3ec69d7c	0.38792026
154	0x3defc3f6	0.117072985
155	0x3c81f065	0.0158617
156	0x3e5956ce	0.2122452
157	0x3e86afcf	0.26306006
158	0xbc934f3a	-0.017982114
159	0x3d66c513	0.05634029
160	0xbe012f02	-0.12615588
161	0x3e9f150a	0.3107074
162	0x3e927de5	0.28611675
163	0xbe0263a0	-0.12733316
164	0x3d7a8c40	0.06116891
165	0xbe7774f4	-0.24165708
166	0x3de26256	0.11053912
167	0xbea598a1	-0.3234301
168	0x3e2543f1	0.16139199
169	0xbdb23b0b	-0.08702668
170	0xbc95c230	-0.018281072
171	0xbdfc43ff	-0.12317657
172	0xbe54e6b8	-0.20791137
173	0x3d979667	0.07401734
174	0x3d3f038d	0.046634246
175	0xbe82ff98	-0.25585628
176	0x3ea92522	0.33036143
177	0x3e320493	0.17384557
178	0x3e5aff38	0.2138642
179	0xbc8286e1	-0.015933456
180	0x3e5d1868	0.21591341
181	0xbe3ae744	-0.18252283
182	0xbe1763ea	-0.14784208
183	0x3e02065b	0.12697737
184	0x3d8e4d2a	0.069483116
185	0xbcea1fc8	-0.028579608
186	0xbebbd6bb	-0.36687264
187	0x3e515be6	0.20445213
188	0xbe0a7d38	-0.1352433
189	0x3ec12c0e	0.37728924
190	0x3e758b88	0.23979008
191	0x3daa43f8	0.08313745
192	0x3ed0d566	0.4078781
193	0x3e830984	0.25593197
194	0x3e217485	0.15767105
195	0xbe59d443	-0.21272378
196	0x3ea7efd2	0.32800156
197	0xbd81934e	-0.06326924
198	0x3e3f5de2	0.18688157
199	0xbda3a9c2	-0.07991363
200	0x3e8710a2	0.26379877
201	0x3e127029	0.14300598
202	0xbec4eeba	-0.38463384
203	0x3e96d086	0.29455966
204	0xbe9ec39b	-0.3100861
205	0xbe8a0bac	-0.2696203
206	0xbe4f48df	-0.20242642
207	0x3d4c4a16	0.04987534
208	0xbead7dd1	-0.33885053
209	0xbe477fce	-0.19482347
210	0xbe2a482c	-0.16629094
211	0x3d30bb43	0.043147337
212	0xbe8b3aca	-0.2719329
213	0xbe4a6bfa	-0.19767752
214	0x3e062627	0.13100491
215	0xbda1fc69	-0.079094715
216	0xbe141c69	-0.14463963
217	0x3dd26b43	0.10274365
218	0xbe6ea63b	-0.233056
219	0xbe9e8040	-0.30957222
220	0xbda868d6	-0.08223121
221	0xbe7ef015	-0.24896272
222	0x3df7a7d8	0.120925605
223	0xbe848150	-0.25879908
224	0xbe0f66bd	-0.14004035
225	0x3e22d643	0.15902047
226	0xbe988314	-0.29787505
227	0x3d6ab180	0.057298183
228	0xbd868f63	-0.065703176
229	0xbdfd0307	-0.12354093
230	0xbe71a019	-0.23596229
231	0xbe3c8885	-0.18411453
232	0xbe4236ee	-0.18966267
233	0xbe82107e	-0.25403208
234	0x3dd1102c	0.10208163
235	0x3b65b740	0.0035051852
236	0x3e88df65	0.26732937
237	0x3e471ec9	0.19445337
238	0x3e8bf8b5	0.27338186
239	0x3de97284	0.11398795
240	0x3e86db68	0.2633927
241	0x3e54f929	0.20798172
242	0x3dd2c278	0.10290998
243	0xbe9ef399	-0.31045225
244	0xbe4310fe	-0.19049451
245	0xbea809e5	-0.3282005
246	0xbe2b3547	-0.16719542
247	0xbdd09708	-0.10185057
248	0x3e7443c1	0.23853971
249	0x3d07c29e	0.033144586
250	0x3dc565a6	0.096385285
251	0xbe8b0516	-0.27152318
252	0xbe68cb78	-0.22733867
253	0x3d5135af	0.051076587
254	0xbd829688	-0.06376368
255	0xbe893f33	-0.2680603

net.3.weight f4 [128, 256]
0	0xbdf01150	-0.11722052
1	0xbd9f39af	-0.07774674
2	0x3d3d43a6	0.046207093
3	0xbd66ee89	-0.05637983
4	0xbba03aab	-0.0048898063
5	0xbd8f9d5e	-0.07012437
6	0x3cd605c7	0.026125802
7	0x3c1f6f6a	0.009731153
8	0xbdce16d8	-0.10062951
9	0x3d949974	0.07255831
10	0x3dc980e3	0.09839036
11	0x3d82d5ef	0.06388461
12	0x3d8ec419	0.069709964
13	0xbc860ad1	-0.01636258
14	0xbcb49f49	-0.02204861
15	0xbd1b36bd	-0.037894
16	0xbe158a30	-0.14603496
17	0x3db8316b	0.08993801
18	0xbe021e18	-0.12706792
19	0x3d849fbc	0.064757794
20	0x3e242841	0.1603098
21	0x3d612e29	0.054975662
22	0xbc7556ab	-0.014974277
23	0x3d448748	0.047980577
24	0x3cdf4dd2	0.027258787
25	0xbe361fc2	-0.17785552
26	0x3c650b00	0.013979673
27	0xbca34a30	-0.019932836
28	0xbc04cb99	-0.008105182
29	0xbd8cc0ef	-0.06872737
30	0xbd6192ad	-0.05507152
31	0xbd3aa1c9	-0.045564447
32	0x3db58970	0.08864105
33	0x3cfd43f7	0.030916197
34	0xbcc236b2	-0.023707721
35	0x3c855027	0.016273571
36	0x3d3a04b8	0.045414656
37	0x3cfa2963	0.030537313
38	0xbd4e33d7	-0.050342407
39	0xbd907571	-0.0705365
40	0x3e76778c	0.24069041
41	0x3d90f5cf	0.07078134
42	0xba3d0b38	-0.00072114496
43	0x3d2b1cc2	0.041775472
44	0x3bf51b88	0.0074800886
45	0xbc778683	-0.015107754
46	0x3d792dfb	0.060834866
47	0x3a124855	0.00055802363
48	0xbd8b3d47	-0.06798797
49	0x3d9ac932	0.07557906
50	0xbc88b8a3	-0.016689604
51	0xbd18acd4	-0.037274197
52	0x3d8872cb	0.0666252
53	0xbc443c9b	-0.01197734
54	0xbdd08871	-0.10182274
55	0x3e006091	0.12536837
56	0x3d5fbf28	0.05462566
57	0x3dc88fc0	0.09793043
58	0xbd18c0bc	-0.03729318
59	0x3de58637	0.1120724
60	0x3dfc583c	0.12321517
61	0xbdb454e4	-0.08805254
62	0xbd66351f	-0.056203004
63	0x3e0807ad	0.13284178
64	0xbdfd7353	-0.12375512
65	0xbde4eeae	-0.11178337
66	0xbd89081d	-0.066910006
67	0xbe0e75c1	-0.13912107
68	0x3da91486	0.08255868
69	0xbc23701e	-0.009975461
70	0x3c874a47	0.01651491
71	0xbd934e04	-0.07192615
72	0xbd01a720	-0.031653523
73	0x3d43c82d	0.047798324
74	0xbd05b542	-0.032643564
75	0xbc59ed88	-0.013301261
76	0xbdae21df	-0.08502554
77	0x3e1856de	0.14876887
78	0x3d6bdd05	0.057583828
79	0x3d878d79	0.06618781
80	0x3d8a7e6d	0.06762395
81	0x3d5143d5	0.05109008
82	0x3dd57f34	0.10424653
83	0x3c92fcf2	0.01794288
84	0xbe610b35	-0.21976931
85	0xbd635bdd	-0.05550753
86	0xbd3c4b24	-0.045970097
87	0x3d3f78f8	0.046746224
88	0xbd9e5ea0	-0.07732892
89	0xbe319a8e	-0.17344114
90	0xbe01e871	-0.12686326
91	0x3d7cd8f0	0.061730325
92	0x3dacce70	0.08437812
93	0xbe0a8010	-0.13525414
94	0xbd2614a9	-0.040547047
95	0xbd2d986a	-0.04238168
96	0xbd4b6421	-0.049656037
97	0xbdcca078	-0.099915445
98	0xbe19aaa1	-0.15006496
99	0x3ddaf837	0.106918745
100	0xbd529ef3	-0.051421117
101	0x3a024be6	0.0004970416
102	0xbd8ad586	-0.067790076
103	0xbe027ada	-0.12742177
104	0x3e3249cb	0.17410962
105	0xbdd79c02	-0.10527803
106	0xbd881f57	-0.066466026
107	0x3d8689f2	0.0656928
108	0xbd2cfa5a	-0.04223094
109	0xbd8fc83d	-0.07020614
110	0xbd8ded29	-0.0693
111	0x3d6f6b6a	0.058452047
112	0xbd1752cf	-0.036944207
113	0xbcebd4c2	-0.028787974
114	0x3cb5ae6a	0.022177894
115	0xbc7f61a6	-0.015587246
116	0xbcfad307	-0.030618204
117	0xbe04a7ef	-0.12954687
118	0x3d0eeb0b	0.034892123
119	0xbd7fa37e	-0.062411778
120	0x3dd46ec1	0.10372687
121	0xbda298fc	-0.07939336
122	0x3de2fbff	0.11083221
123	0xbd94e4a3	-0.072701715
124	0x3dbee8c0	0.09321737
125	0x3d660323	0.056155335
126	0xbc7a8744	-0.015291039
127	0xbde2663e	-0.110546574
128	0xbdae61a0	-0.08514714
129	0x3d06e405	0.0329323
130	0x3d055fcc	0.032562062
131	0x3d777c5c	0.060421333
132	0x3dc8ba61	0.09801174
133	0xbd1f695b	-0.038918834
134	0x3dd7b517	0.10532587
135	0xbe5c7174	-0.21527654
136	0x3dec2ba3	0.115317605
137	0x3cd0b058	0.025474712
138	0xbdeb1f10	-0.11480534
139	0x3cd1f208	0.025628105
140	0x3ce9a68e	0.028521802
141	0x3d27c845	0.040962476
142	0x3cd4d3e9	0.025979953
143	0xbda908ba	-0.082536176
144	0xbd6a33a1	-0.057178143
145	0x3c2da1a6	0.010597622
146	0x3d8af923	0.067858
147	0x3def75e2	0.11692406
148	0x3d02c773	0.03192849
149	0xbd16ee56	-0.03684839
150	0xbd861f91	-0.065489896
151	0xbe0f5809	-0.13998426
152	0xbe8fafa9	-0.28063706
153	0x3cac91ac	0.021065556
154	0x3d089270	0.03334278
155	0x3ce3b77f	0.027797459
156	0xbd8ccc07	-0.06874853
157	0xbc8c814e	-0.017151501
158	0xbe19ae6b	-0.15007941
159	0x3da5494d	0.08070622
160	0xbce78677	-0.02826236
161	0x3da5821c	0.08081457
162	0x3d5f1815	0.054466326
163	0xbccb31a4	-0.024803944
164	0x3e0cb2a4	0.13740021
165	0x3d8b4de7	0.06801968
166	0x3d2376bc	0.039908156
167	0x3c33dbbc	0.010977682
168	0x3c9338ae	0.017971363
169	0x3d5a0cfc	0.05323504
170	0xbdca3d90	-0.09875023
171	0x3d50742d	0.050892044
172	0xbd80d65a	-0.06290884
173	0xbd94d2cd	-0.072667696
174	0xbe03c6ab	-0.12868755
175	0xbc76202a	-0.015022317
176	0x3cc55eef	0.02409312
177	0xbcc9bf25	-0.024627278
178	0x3e04c712	0.12966564
179	0xbcd09154	-0.025459923
180	0xbd126705	-0.03574278
181	0xbdec4185	-0.11535934
182	0xbddf3b17	-0.10899942
183	0x3cad58e3	0.021160549
184	0x3c93ed03	0.018057352
185	0x3da4d870	0.08049095
186	0xbd9ed4c0	-0.077554226
187	0xbc161a18	-0.009161495
188	0xbc44d50d	-0.012013686
189	0x3cbb19f4	0.022839524
190	0xbd4e4e80	-0.050367832
191	0x3d85ce25	0.065334596
192	0xbce4967f	-0.027903793
193	0x3d61b9ac	0.05510871
194	0xbda9cb0d	-0.08290682
195	0xbd559338	-0.052142352
196	0x3ce407fe	0.027835842
197	0x3b3f0fe1	0.0029153752
198	0xbcb23f2e	-0.021758642
199	0xbda0a61d	-0.078441836
200	0x3d963bfc	0.0733566
201	0x3da9cf6e	0.08291517
202	0xbd0f75f5	-0.035024602
203	0x3d67dc65	0.05660667
204	0xbe1b23f3	-0.15150432
205	0xbbe516ab	-0.0069912276
206	0x3d57a114	0.05264385
207	0xbca29486	-0.019846212
208	0x3d54dbde	0.051967494
209	0x3be08d81	0.006852806
210	0xbdceae27	-0.10091811
211	0xbe2c68a1	-0.16836788
212	0xbdc703c5	-0.09717516
213	0xbdbd41d8	-0.09241074
214	0x3b7d6473	0.0038664609
215	0xbd175a46	-0.036951326
216	0x3d9d476f	0.076796405
217	0xbd9a3070	-0.0752877
218	0x3ddbb814	0.107284695
219	0xbdac71b3	-0.08420124
220	0xbe384867	-0.1799637
221	0x3d7ba108	0.06143287
222	0xbc846b12	-0.016164336
223	0x3cc7f52c	0.0244089
224	0xbb8aa82e	-0.0042314744
225	0x3c265a0a	0.010153303
226	0x3b250a9f	0.0025183333
227	0x3d43a6fe	0.047766678
228	0xbd8cc4c5	-0.06873468
229	0xbe3cfc6c	-0.18455666
230	0x3e0cce09	0.13750471
231	0xbde97109	-0.11398513
232	0xbd03c338	-0.032168597
233	0xbe20ea12	-0.1571429
234	0xbcc95f38	-0.024581537
235	0x3d0a7532	0.033803172
236	0x3c885d5c	0.01664608
237	0x3c4541c7	0.012039608
238	0x3d11b7f6	0.03557583
239	0x3e0764fa	0.13222113
240	0x3da2bb13	0.07945838
241	0xbd81e54c	-0.06342563
242	0xbd285d32	-0.041104503
243	0xbd188afc	-0.03724192
244	0xbdf03beb	-0.117301784
245	0x3d78fa3a	0.06078551
246	0xbdadf144	-0.084932834
247	0x3d560ee5	0.0522603
248	0xbd8fdc7d	-0.07024477
249	0x3ccc7a4e	0.024960663
250	0x3cf2cefc	0.029639713
251	0xbe1981d4	-0.14990932
252	0xbdc47072	-0.0959176
253	0xbb7754ec	-0.0037739826
254	0x3d075c48	0.03304699
255	0xbe0f30ee	-0.13983509

net.3.bias f4 [128]
0	0x3d9f6400	0.07782745
1	0x3d02cfc9	0.03193644
2	0xbd46403a	-0.048401095
3	0x3d993dd4	0.07482496
4	0x3d65f773	0.05614419
5	0xbd78e9a3	-0.06076969
6	0x3da33ea6	0.079709336
7	0x3d4511ab	0.048112553
8	0x3d3a9637	0.045553412
9	0x3c4e0332	0.012574004
10	0xbd5449fb	-0.051828366
11	0x3e535da1	0.20641185
12	0x3da7c94e	0.08192693
13	0xbddd19f6	-0.10795967
14	0x3da69757	0.081343345
15	0xbc7b2cb6	-0.015330484
16	0x3e197f0b	0.1498987
17	0x3e15ecd8	0.1464113
18	0xbbdb40a9	-0.0066910577
19	0x3e1ff8a7	0.15622197
20	0xbe019f79	-0.1265849
21	0x3e01ecf2	0.12688044
22	0x3e2e3ae0	0.17014647
23	0xbb6e5359	-0.0036365597
24	0xbe25dfd0	-0.16198659
25	0x3e0df3ba	0.13862506
26	0xbd875537	-0.0660805
27	0xbd39e675	-0.045385797
28	0x3cb51666	0.022105407
29	0x3c0b8c84	0.008517388
30	0x3c4350a6	0.011921084
31	0xbe05d16c	-0.1306817
32	0x3c999176	0.018746119
33	0xbd14a51d	-0.036290277
34	0xbc7c97a3	-0.015417012
35	0xbdbd4565	-0.092417516
36	0xbe067c58	-0.13133371
37	0x3d06eaf6	0.03293892
38	0x3c3ab2f1	0.011395202
39	0xbdc48f45	-0.09597639
40	0xbd8024ed	-0.06257043
41	0xbdab5bf6	-0.083671495
42	0x3d383725	0.044974465
43	0x3e0cb83c	0.13742155
44	0xbc9c166f	-0.019053666
45	0x3c33d6e9	0.010976532
46	0xbe0b6771	-0.13613679
47	0xbdda9061	-0.10672069
48	0x3e192b77	0.14957987
49	0x3d1e6880	0.038673878
50	0xba4631f3	-0.00075605436
51	0x3da3707c	0.07980439
52	0xbce30857	-0.027713938
53	0x3ce732cb	0.028222462
54	0xbd6b9c92	-0.057522364
55	0xbda5a0e1	-0.08087326
56	0xbd465077	-0.04841658
57	0xbd932e4e	-0.07186566
58	0xbddeaa3d	-0.10872314
59	0xbcb49592	-0.022043977
60	0xbd80d733	-0.06291046
61	0xbd047af5	-0.032343823
62	0xbcd010d5	-0.025398651
63	0xbde6f47e	-0.11277102
64	0x3dfedd44	0.12444547
65	0x3e3efef4	0.18651944
66	0x3dae7a23	0.085193895
67	0xbd4bdd58	-0.049771637
68	0x3d739027	0.059463646
69	0xbbeb8027	-0.007186908
70	0xbd9dcaec	-0.0770472
71	0xbc3d7ecb	-0.011565874
72	0x3df26b7c	0.11836907
73	0x3c5d98c3	0.013525191
74	0xbd54ce3a	-0.051954485
75	0x3ce228fe	0.027607437
76	0x3df2a2a0	0.118474245
77	0x3db65e6c	0.08904728
78	0xbdd8777c	-0.10569665
79	0x3c424d96	0.011859318
80	0xbce655a3	-0.028117007
81	0xbda7d85a	-0.08195563
82	0x3dcce14f	0.10003912
83	0xbdd169e5	-0.10225276
84	0xbd5751a3	-0.05256809
85	0xbd4ccc41	-0.04999948
86	0x3e07ebef	0.13273595
87	0xbded297f	-0.115801804
88	0x3d3df0c1	0.04637218
89	0x3cc29eae	0.023757305
90	0x3dd9a082	0.106263176
91	0xbdec2afd	-0.11531637
92	0x3c8fc2ac	0.017548881
93	0x3dc81461	0.09769512
94	0xbe26c5c1	-0.16286375
95	0xbd50e1fc	-0.050996765
96	0x3d1b2baf	0.037883457
97	0xbd240e1a	-0.04005251
98	0xbd82f879	-0.06395049
99	0x3da48597	0.08033293
100	0xbe0d3f69	-0.1379372
101	0xbd661435	-0.056171615
102	0x3e07b181	0.13251306
103	0xbd3291c5	-0.043596048
104	0xbc265db6	-0.010154178
105	0x3d372d8a	0.044721164
106	0x3e245670	0.16048598
107	0xbb1970f5	-0.0023413275
108	0x3da916f5	0.08256332
109	0xbd8282f5	-0.06372634
110	0xbda2a0e8	-0.07940847
111	0xbcea38a4	-0.028591461
112	0x3d20240e	0.039096884
113	0x3d7e9885	0.062157173
114	0xbdafa3e2	-0.0857618
115	0xbdb923bb	-0.09040018
116	0xbddd2867	-0.10798722
117	0xbac3a6e8	-0.0014927061
118	0xbd04d3ad	-0.032428432
119	0x3e2a8d43	0.1665545
120	0xbdb1bb36	-0.08678286
121	0xbda50359	-0.08057279
122	0x3ccd7085	0.025078068
123	0xbd898fc5	-0.06716875
124	0x3d8e5d99	0.06951446
125	0xbd188503	-0.037236225
126	0xbe085d96	-0.1331695
127	0xbe356063	-0.1771255

net.6.weight f4 [64, 128]
0	0x3be27ce0	0.006911859
1	0x3cacf2ac	0.021111809
2	0xbc675a72	-0.014120685
3	0xbbbe41bf	-0.0058061774
4	0xbd875045	-0.06607107
5	0xbe4337b9	-0.19064225
6	0xbe07b033	-0.13250808
7	0xbe528366	-0.20557937
8	0x3c6d7d51	0.01449521
9	0x3cc115ac	0.023569904
10	0x3d10248b	0.0351911
11	0x3d865852	0.065598145
12	0xbd837d55	-0.064203896
13	0xbdf928f3	-0.121660136
14	0x3d85ee11	0.06539548
15	0x3dc17f61	0.09448124
16	0x3da6ad15	0.081384815
17	0x3cbdd0f1	0.02317092
18	0xbdc27537	-0.09495013
19	0xbccc17b3	-0.024913644
20	0x3e31ba83	0.17356305
21	0xbd0b0110	-0.03393656
22	0x3c1294f9	0.008946651
23	0xbc1e3603	-0.009656432
24	0xbd976f17	-0.073942356
25	0xbd8b9148	-0.068148196
26	0xbd89b884	-0.06724647
27	0x3d885d9c	0.066584796
28	0x3dd46a2b	0.103718124
29	0x3cba19a0	0.022717297
30	0xbe811b75	-0.2521626
31	0xbe1268a5	-0.14297731
32	0x3e3dacd0	0.18522954
33	0xbcc389d7	-0.023869438
34	0x3d2e2e43	0.042524587
35	0x3d917c80	0.071038246
36	0xbd32a976	-0.04361864
37	0xbd9761ae	-0.07391678
38	0xbd801c0b	-0.06255349
39	0xbcbc33ab	-0.022973856
40	0x3d68be0c	0.056821868
41	0xbc0482cf	-0.008087828
42	0xbd3504b3	-0.044193935
43	0xbb9e3a96	-0.0048287613
44	0x3dd93029	0.10604889
45	0xbd71283e	-0.05887627
46	0xbdb2ecfd	-0.08736608
47	0xbe0bf8f7	-0.13669191
48	0x3c8d656f	0.017260281
49	0xbdefda3d	-0.117115475
50	0x3e3206e7	0.17385446
51	0xbde9f86f	-0.11424338
52	0xbcc2130e	-0.023690727
53	0x3e3a75de	0.18209025
54	0x3d639bfb	0.055568676
55	0x3c27f984	0.01025236
56	0xbb21429b	-0.002460635
57	0xbc849724	-0.01618535
58	0x3e028634	0.12746507
59	0x3b4f4396	0.0031625978
60	0xbca7fb95	-0.020505706
61	0x3cb8e9dc	0.02257245
62	0x3e49657f	0.19667624
63	0xbe224d3c	-0.15849775
64	0x3df8f598	0.12156218
65	0x3e3990af	0.18121599
66	0x3dd28431	0.1027912
67	0xbd08710a	-0.033310927
68	0x3e38008c	0.17968959
69	0x3d670d44	0.056409135
70	0x3c59ad31	0.013285921
71	0x3e81303d	0.25232115
72	0x3e05ca91	0.13065554
73	0x3ddcbbdb	0.10778018
74	0xbb61bd82	-0.003444523
75	0xbbda337c	-0.0066589694
76	0x3da3e8b5	0.0800337
77	0xbe0218d3	-0.12704782
78	0xbc5b6038	-0.01338964
79	0x3cbb1bc5	0.02284039
80	0x3d9b763d	0.075909115
81	0x3cebd389	0.028787391
82	0xbc413883	-0.011793259
83	0xbd763dcf	-0.06011754
84	0xbe27ec01	-0.16398622
85	0x3d3b30c6	0.04570081
86	0x3d2a3ba1	0.041560773
87	0x3c57e852	0.013177948
88	0x3dd4135f	0.10355257
89	0xbd47128e	-0.04860168
90	0xbcc8a9d4	-0.024495043
91	0xbe14eaf7	-0.14542757
92	0xbd3fec59	-0.046856258
93	0x3e01a3e6	0.12660179
94	0xbe312e11	-0.17302729
95	0x3d0ae12b	0.033906143
96	0x3d89e660	0.06733394
97	0x3d43793d	0.047723044
98	0xbe33b7e1	-0.17550613
99	0x3e0a0321	0.13477756
100	0xbdcee1ee	-0.101016864
101	0x3d421bf6	0.047389947
102	0x3d7d8622	0.061895497
103	0x3cfb2ef8	0.030662045
104	0x3ddc6e62	0.10763241
105	0xbe47aae8	-0.1949879
106	0x3d886763	0.066603445
107	0x3e261f49	0.16222872
108	0xbe43523c	-0.19074339
109	0xbcee9053	-0.029121554
110	0x3d30af9a	0.043136217
111	0x3e28ac81	0.16472055
112	0xbdaa12a1	-0.083043344
113	0x3e74a447	0.23890792
114	0xbc9d4e50	-0.019202381
115	0xbd900ab6	-0.07033293
116	0xbe4225a2	-0.18959668
117	0xbb8519da	-0.0040619196
118	0xbd0bb3bf	-0.034106966
119	0xbc20f1e1	-0.009823293
120	0x3d4ee7fa	0.0505142
121	0xbd7e634e	-0.062106423
122	0xbe385191	-0.17999865
123	0xbd81c0c6	-0.06335597
124	0x3d027ba8	0.03185621
125	0xbc5fb380	-0.013653636
126	0xbca72965	-0.02040548
127	0x3cc7c74d	0.024387026
128	0xbe069754	-0.13143665
129	0xbe0f6c1e	-0.14006087
130	0x3d26026b	0.04052965
131	0xbdf23da9	-0.11828167
132	0xbdc49ee0	-0.096006155
133	0xbc33bfd7	-0.010971031
134	0x3c2b9bac	0.010474127
135	0x3c3fb7ff	0.011701583
136	0xbc9c2273	-0.019059395
137	0xbe8654df	-0.26236627
138	0xbd8d00aa	-0.06884892
139	0xbe4b342f	-0.19844125
140	0xbd1f3405	-0.03886797
141	0x3d057326	0.032580517
142	0x3d82b48c	0.06382093
143	0x3cc64d38	0.024206743
144	0xbddde944	-0.108355075
145	0xbca3d9e3	-0.020001357
146	0xbc06a128	-0.008217134
147	0xbe5c2fd1	-0.21502616
148	0x3c325be1	0.010886163
149	0xbccb9352	-0.024850521
150	0xbdecfe3f	-0.11571931
151	0xbd397c3b	-0.04528449
152	0xbc015bfa	-0.007895464
153	0xbd847dcc	-0.06469306
154	0xbaa1e1a2	-0.0012350569
155	0xbd7d6588	-0.061864406
156	0x3d4c14c6	0.0498245
157	0x3d2c642e	0.042087726
158	0xbd9e0e5d	-0.07717583
159	0x3daae3c0	0.08344221
160	0xbe480919	-0.1953472
161	0xbddf55a4	-0.109050065
162	0xba0a81af	-0.00052836066
163	0x3d5b856b	0.053594034
164	0x3e31f218	0.17377508
165	0x3d75cbde	0.060008876
166	0xbe0bccb1	-0.13652302
167	0x3d01cc75	0.031689126
168	0x3da1b0a1	0.078950174
169	0x3cae0787	0.021243824
170	0xbd0c7240	-0.034288645
171	0xbe30e6ce	-0.17275545
172	0xbd0e2e11	-0.0347119
173	0xbdcea906	-0.100908324
174	0xbcc94922	-0.024571005
175	0x3a12894e	0.0005589918
176	0x3d987273	0.074437045
177	0x3cc7e9c0	0.024403453
178	0xbe36d483	-0.17854504
179	0xbe2730fb	-0.16327278
180	0xbd62ba28	-0.055353314
181	0x3d02b4f6	0.03191086
182	0x3dd1d293	0.10245242
183	0x3c4e8fa0	0.012607485
184	0x3c7b2d0f	0.015330567
185	0x3c8cb1d7	0.017174644
186	0x3d2c2b7a	0.04203365
187	0xbd7686fa	-0.060187317
188	0x3d25f11d	0.040513147
189	0x3d9d46a0	0.07679486
190	0x3d77d2eb	0.06050388
191	0xbd60fc02	-0.054927833
192	0xbdc5b7f6	-0.096542284
193	0xbab69c55	-0.0013932089
194	0xbd5fd9be	-0.054651015
195	0x3cfa8130	0.03057918
196	0x3bc3f950	0.005980648
197	0xbd819414	-0.06327072
198	0x3a00061e	0.0004883724
199	0x3c18f33f	0.009335338
200	0x3da3c666	0.07996826
201	0x3d8ac772	0.067763224
202	0x3d8e9a1c	0.06962988
203	0x3d1f9c3a	0.03896735
204	0x3cecbf2a	0.028899748
205	0x3d29addf	0.041425582
206	0xbdceee52	-0.1010405
207	0x3ddbc8a6	0.1073163
208	0x3dbf5552	0.093424454
209	0xb92379dc	-0.00015590288
210	0xbdb53baa	-0.08849271
211	0x3e099a39	0.13437738
212	0xbe23f57e	-0.16011617
213	0x3d3f6f6e	0.046737127
214	0x3ba5945b	0.0050530857
215	0x3d6608a3	0.05616058
216	0xbd8ebd70	-0.06969726
217	0x3e267f8b	0.16259591
218	0x3dd64d4b	0.10463961
219	0x3e027087	0.12738238
220	0x3d30e038	0.04318258
221	0xbd97f691	-0.07420076
222	0x3d4250a8	0.0474402
223	0xbd94c78e	-0.072646245
224	0xbde14b20	-0.11000657
225	0xbcca0a2f	-0.024663059
226	0x3de8df00	0.11370659
227	0xbda177f6	-0.07884209
228	0x3ce30db2	0.027716491
229	0xbd54b5cc	-0.051931188
230	0xbd599cda	-0.0531281
231	0x3c5ad254	0.01335581
232	0xbd993546	-0.07480864
233	0xbd90a1f2	-0.070621386
234	0xbdee569f	-0.116376154
235	0x3e29dc8a	0.16588035
236	0xbe025695	-0.12728341
237	0x3cecfa52	0.028927956
238	0x3dc94557	0.09827679
239	0xbd9dedad	-0.07711349
240	0xbd5be459	-0.053684566
241	0x3d642684	0.055700794
242	0x3d43867c	0.047735676
243	0xbcfbed36	-0.03075276
244	0xbb8468ef	-0.0040408294
245	0xbb3d4db0	-0.0028885417
246	0x3d22c43a	0.039737917
247	0xbd855cc2	-0.06511833
248	0x3d036c3c	0.032085642
249	0x3bdf20ed	0.006809345
250	0xbe769e41	-0.24083807
251	0xbd041ce6	-0.032254122
252	0xbe386c03	-0.18009953
253	0xbc33a0e5	-0.010963653
254	0x3e0110e3	0.12604098
255	0x3d0f62d5	0.035006363

net.6.bias f4 [64]
0	0x3b451562	0.003007256
1	0xbe24fdd2	-0.1611245
2	0x3c043460	0.008069128
3	0x3d95bec2	0.07311775
4	0xbde34369	-0.11096842
5	0xbc22d128	-0.009937562
6	0x3c595bd7	0.013266525
7	0xbceea172	-0.029129717
8	0x3da6b3a8	0.081397355
9	0x3dde4cd8	0.108545005
10	0xbc628d6c	-0.013827663
11	0x3c4dcec3	0.012561503
12	0xbe640351	-0.2226689
13	0x3e62af3b	0.22137158
14	0xbe0b06ef	-0.13576864
15	0xbda1ae61	-0.07894588
16	0x3da34700	0.079725266
17	0x3e36141c	0.17781109
18	0x3db4a52e	0.08820568
19	0xbd5be294	-0.05368288
20	0xbd8b8ba0	-0.06813741
21	0xbd4b8416	-0.049686514
22	0x3dfc0642	0.12305881
23	0x3d8e670b	0.06953248
24	0xbd77a6d0	-0.06046182
25	0x3e0050da	0.12530842
26	0x3e4750bc	0.19464391
27	0x3e3bca79	0.18338956
28	0x3e413ba0	0.18870401
29	0xbdaec327	-0.08533316
30	0xbd190d79	-0.037366364
31	0xbd8f4e27	-0.06997328
32	0xbd3d8750	-0.046271622
33	0xbe0a35ef	-0.13497137
34	0x3da2481c	0.0792391
35	0x3cdc3365	0.026879976
36	0xbdc2dff4	-0.09515372
37	0x3dd786e1	0.10523773
38	0xbc69594b	-0.0142424805
39	0x3d9428cb	0.07234343
40	0xbcf5c235	-0.029999832
41	0xbcfe7ad4	-0.031064428
42	0x3eb0f8e6	0.34564894
43	0xbe1d7f8d	-0.15380688
44	0xbb830a2f	-0.0039990167
45	0x3d864aa9	0.06557209
46	0xbdcb367c	-0.099225014
47	0xbdfc2d99	-0.123133846
48	0xbdc59fd0	-0.096496224
49	0xbe05ed2b	-0.13078754
50	0x3d4d867f	0.050177094
51	0xbd9aa747	-0.07551437
52	0x3e4d95c5	0.20076664
53	0x3d0d7888	0.034538776
54	0x3e4d1a57	0.20029579
55	0xbd9d19de	-0.076709494
56	0x3e0dbbad	0.13841124
57	0xbe2c81b3	-0.16846351
58	0x3e8f5739	0.27996233
59	0x3ddc5e92	0.10760225
60	0x3e4ccccb	0.19999997
61	0x3d1400e2	0.036133654
62	0x3dcbc0f9	0.09948916
63	0x3e2a3e6c	0.16625375

net.9.weight f4 [5, 64]
0	0x3e1629de	0.14664409
1	0xbcd0c687	-0.02548529
2	0x3d4e25c0	0.05032897
3	0x3d979a6f	0.07402503
4	0xbd51bfa8	-0.05120817
5	0xbda21c94	-0.07915607
6	0xbe0f4d5a	-0.13994351
7	0xbd505201	-0.050859455
8	0xbede6885	-0.43439117
9	0xbe27b6ec	-0.16378373
10	0x3e03015f	0.12793492
11	0xbe2959d1	-0.16538168
12	0x3d35e79d	0.044410337
13	0xbd7a9c80	-0.061184406
14	0x3da47cdf	0.0803163
15	0x3e18d783	0.14925961
16	0xbe0a745a	-0.13520947
17	0x3d91cbc5	0.07118944
18	0xbea47133	-0.32117614
19	0x3dd71b48	0.1050325
20	0xbd78acfa	-0.06071184
21	0x3d89c19f	0.067263834
22	0xbce063d4	-0.027391352
23	0xbe2b6068	-0.16735995
24	0x3daf1f2e	0.08550869
25	0xbd507d72	-0.050900884
26	0x3e13837b	0.14405625
27	0xbcd959bf	-0.026532052
28	0x3cae164e	0.02125087
29	0x3df7df0e	0.12103091
30	0x3e2e9be6	0.17051658
31	0xbe1084b6	-0.14113125
32	0x3d903c6c	0.070427746
33	0xbd9d12cc	-0.07669601
34	0xbc8c3458	-0.017114803
35	0xbe10daee	-0.14146015
36	0xbe20376e	-0.15646145
37	0xbe35e438	-0.1776284
38	0xbe04cee5	-0.12969549
39	0x3ddf900b	0.10916146
40	0xbe0f6301	-0.1400261
41	0xbeb967e4	-0.36212075
42	0xbc870e26	-0.016486239
43	0x3ddc8e9f	0.1076939
44	0xbe55cf75	-0.2087992
45	0xbdfd6ee5	-0.12374667
46	0xbd691da8	-0.056913048
47	0xbeb68d44	-0.35654652
48	0x3dc721a3	0.097232126
49	0xbeb0cfd0	-0.34533548
50	0x3df0b14e	0.11752568
51	0x3d9f4b9f	0.077780955
52	0xbe8b0639	-0.27153185
53	0xbe0aab0a	-0.13541809
54	0x3d73fd3e	0.059567682
55	0xbe797252	-0.24360016
56	0x3dfffa1c	0.124988765
57	0x3e04d27d	0.1297092
58	0x3de786c3	0.11305001
59	0xbc9be59a	-0.019030381
60	0x3dd38104	0.10327342
61	0x3b9bd8a5	0.0047560507
62	0x3e054479	0.13014401
63	0x3da4fc2b	0.0805591
64	0xbdea6d6b	-0.11446651
65	0xbe0ee3ae	-0.1395404
66	0xbe8863c9	-0.2663863
67	0xbeade20c	-0.33961523
68	0x3d3abd03	0.045590412
69	0xbe4dad1a	-0.20085564
70	0x3d2ab6e2	0.041678317
71	0xbde59e57	-0.112118416
72	0x3baf6dbc	0.0053536575
73	0x3e3c3615	0.18380006
74	0xbe14fb0d	-0.14548893
75	0x3e8ab2c6	0.27089518
76	0xbe63a196	-0.22229609
77	0x3c8dd5c9	0.017313855
78	0xbec04e75	-0.37559858
79	0xbe106378	-0.14100444
80	0x3d84db47	0.06487136
81	0x3e427c10	0.18992639
82	0x3e30e6a6	0.17275485
83	0xbe570790	-0.20998979
84	0xbdd41997	-0.103564434
85	0xbddac5fa	-0.10682292
86	0x3db11f0d	0.086485006
87	0x3e334dfd	0.17510219
88	0xbef0849b	-0.4697617
89	0xbe8c8a2c	-0.27449167
90	0x3e0a462c	0.13503331
91	0x3dee8239	0.11645932
92	0xbcdf234a	-0.027238507
93	0xbed2605c	-0.4108914
94	0xbdd5d51d	-0.10441039
95	0x3d945c3a	0.07244153
96	0xbe2ec433	-0.17067032
97	0xbdd5f867	-0.104477696
98	0xbe424364	-0.1897102
99	0x3ddd3a4f	0.10802137
100	0x3d5b5f48	0.053557664
101	0x3e03e1ec	0.12879151
102	0x3d0587c3	0.032600176
103	0xbe0b6572	-0.13612917
104	0xbe7edf92	-0.24889973
105	0xbdc1f267	-0.09470063
106	0x3d8d5583	0.06901076
107	0xbeb28b55	-0.34871927
108	0xbd99f524	-0.0751746
109	0x3e15de99	0.14635696
110	0x3d289a13	0.04116256
111	0xbe9915ce	-0.29899448
112	0xbc04dae9	-0.008108833
113	0xbd72cdd0	-0.05927831
114	0x3dc0c23d	0.09412048
115	0xbde090c3	-0.10965111
116	0x3e4a0f46	0.19732389
117	0x3d84f004	0.06491092
118	0x3dcd0df2	0.100124255
119	0x3d5ba03b	0.053619605
120	0x3d44582f	0.04793566
121	0xbe8da24a	-0.2766288
122	0x3dbc7ece	0.092038736
123	0x3d2ec089	0.042664085
124	0x3d88be38	0.06676906
125	0xbe202931	-0.15640713
126	0x3da42a84	0.08015922
127	0x3d88a63e	0.06672333
128	0xbe8f2995	-0.27961412
129	0x3e052022	0.13000539
130	0xbd0d49bf	-0.034494158
131	0xbe67c7f6	-0.22634873
132	0xbd80f028	-0.06295806
133	0x3e2c2d08	0.16814053
134	0x3de8fb74	0.11376086
135	0xbd9eff5d	-0.077635504
136	0xbb8d9237	-0.0043204087
137	0xbeb0cd68	-0.34531713
138	0xbb7db2d9	-0.0038711338
139	0xbef99663	-0.48747548
140	0x3e19705f	0.14984272
141	0xbebdaa97	-0.37044212
142	0x3d955d85	0.07293228
143	0xbd62c04d	-0.055359174
144	0x3dda7ffa	0.10668941
145	0xbebf4c2e	-0.37362808
146	0xbef4ce01	-0.47813419
147	0x3df1bc5a	0.11803503
148	0xbd6bc3f1	-0.05755991
149	0xbd14373f	-0.0361855
150	0xbebe32ae	-0.3714804
151	0x3e0f7172	0.1400812
152	0x3d935af2	0.07195081
153	0xbdff3f00	-0.12463188
154	0x3b5f422f	0.0034066548
155	0x3da00bcd	0.07814751
156	0xbed8f6ba	-0.42375737
157	0xbdae286a	-0.08503802
158	0x3cdad6e9	0.026713805
159	0x3e057eae	0.13036606
160	0x3db41fe4	0.08795145
161	0x3da8c4c1	0.08240653
162	0xbe42cebf	-0.1902418
163	0x3d5dad59	0.054120395
164	0x3d9fc4b6	0.078011915
165	0xbdb9fe2e	-0.09081684
166	0x3d84c05c	0.06482002
167	0xbded37b8	-0.11582893
168	0x3de253ac	0.110511154
169	0xbe266a93	-0.16251592
170	0xbe6ecfcf	-0.2332146
171	0x3dd7aa79	0.10530562
172	0x3dd8a6be	0.105786785
173	0x3db23b7c	0.08702752
174	0xbda031a8	-0.07821971
175	0xbe3e8446	-0.18605146
176	0x3dc3209a	0.09527703
177	0xbe6908ec	-0.2275731
178	0x3d8161b3	0.06317463
179	0xbd931bff	-0.07183074
180	0xbe7128d5	-0.23550732
181	0x3dbfa5a2	0.09357764
182	0x3c3851e4	0.011249993
183	0x3e02857f	0.12746237
184	0xbe512fe8	-0.20428431
185	0x3e0c4ba0	0.13700724
186	0xbe76bc19	-0.24095191
187	0xbe8e2790	-0.2776456
188	0xbead63aa	-0.338651
189	0xbdb2418c	-0.08703908
190	0xbe75c9d4	-0.24002773
191	0x3d375471	0.044758264
192	0x3ca690c6	0.020332705
193	0xbdd5102a	-0.10403474
194	0x3e34c05d	0.17651506
195	0x3a67eaf8	0.0008846964
196	0x3da35624	0.079754144
197	0x3dd9f8f7	0.106431894
198	0xbd84d1d5	-0.06485335
199	0x3ddeea81	0.10884572
200	0x3d851ac0	0.06499243
201	0xbcf44ad8	-0.029820845
202	0xbd2f3abc	-0.042780623
203	0xbdb7ff78	-0.08984274
204	0x3d642365	0.055697817
205	0x3d5613db	0.05226503
206	0xbafaa423	-0.0019122403
207	0xbdbc5892	-0.09196581
208	0x3dc6e742	0.09712078
209	0xbd8829f5	-0.06648628
210	0xbda72e9a	-0.081631854
211	0x3e157e7e	0.14599034
212	0xbb831f11	-0.004001506
213	0x3cb6fb45	0.022336612
214	0xbe35a1f5	-0.17737563
215	0xbdf41a00	-0.119190216
216	0x3d7fbb4c	0.06243448
217	0x3dd330a1	0.103120096
218	0x3e110a0d	0.1416399
219	0x3dee60d8	0.11639565
220	0x3cdfe144	0.027329095
221	0x3dc37b17	0.09544962
222	0x3dde40aa	0.108521774
223	0x3dc5a265	0.09650115
224	0x3d251994	0.040307596
225	0xbcbe6d17	-0.023245377
226	0x3d155232	0.03645534
227	0x3d131909	0.035912547
228	0xbe02ed65	-0.12785871
229	0x3e047634	0.12935716
230	0xbdc9f7fe	-0.09861754
231	0xbd581911	-0.05275828
232	0x3c15eeb8	0.009151153
233	0x39345263	0.00017196829
234	0x3c6faa4a	0.014628002
235	0x3dbfa2c6	0.093572184
236	0x3e288450	0.16456723
237	0x3d4b8298	0.04968509
238	0x3d56787e	0.052361004
239	0x3d8fcfd7	0.07022064
240	0xbd685660	-0.056723
241	0x3e1a635e	0.15076968
242	0xbdf54626	-0.119762704
243	0xba0995cf	-0.00052484585
244	0xbd4d8b9f	-0.05018198
245	0x3d140138	0.036133975
246	0x3d4530a6	0.048142098
247	0xbde35c71	-0.11101616
248	0xbdd5f73d	-0.104475476
249	0x3d3cf81e	0.04613506
250	0x3d6dc87a	0.058052517
251	0x3d033956	0.0320371
252	0xbd351d13	-0.04421718
253	0x3dcf30de	0.101167426
254	0xbe082ca9	-0.13298286
255	0x3d938279	0.0720262

net.9.bias f4 [5]
0	0x3c1e0938	0.009645753
1	0x3db0ac25	0.08626584
2	0xbe98fd60	-0.2988081
3	0x3c6bf925	0.014402662
4	0xbdb92d47	-0.09041839
