outputs/federated/global_model.pt (torch, 181011 bytes, 8 tensors)

net.0.weight f4 [256, 10]
0	0xbe4d6192	-0.20056751
1	0xbeba68e2	-0.36408144
2	0xbde8cd80	-0.11367321
3	0xbe85bb47	-0.26119444
4	0xbc8d09ca	-0.017216582
5	0xbe0e1bde	-0.13877818
6	0x3e21abd1	0.15788199
7	0x3e66f668	0.22554934
8	0x3e5a1f5c	0.21301025
9	0x3da23124	0.07919529
10	0xbb7648fd	-0.0037580125
11	0x3eb6306a	0.35583812
12	0x3e230e9d	0.15923543
13	0xbe37efc3	-0.17962556
14	0xbe8a4e7e	-0.2701301
15	0x3e9b1c00	0.302948
16	0x3e05f01f	0.1307988
17	0x3e8137ab	0.25237784
18	0x3bfc0c38	0.0076918863
19	0x3cc05eb6	0.023482662
20	0x3e874049	0.26416233
21	0x3d783c4b	0.060604375
22	0xbdf59970	-0.119921565
23	0x3e90e57a	0.28300077
24	0x3e1c8f84	0.15289122
25	0x3eabbba0	0.33541584
26	0xbe1cb4d0	-0.1530335
27	0xbde27857	-0.11058109
28	0x3dc5b65b	0.09653922
29	0xbc9e03b2	-0.019288871
30	0xbe64a856	-0.2232984
31	0xbe9953d4	-0.29946768
32	0xbd400247	-0.04687717
33	0x3e1a120a	0.15045944
34	0x3e76eb60	0.24113226
35	0xbe8e25a2	-0.27763087
36	0xbe628f3e	-0.22124955
37	0x3ea714be	0.32633013
38	0x3e44e85a	0.1922926
39	0x3deab5f0	0.11460483
40	0x3e6388b4	0.22220117
41	0x3e3639a5	0.17795427
42	0xbe9c9a61	-0.30586532
43	0xbe25bfca	-0.16186443
44	0xbdcdb738	-0.10044712
45	0xbdc23f3f	-0.094847195
46	0x3e9544f0	0.29154158
47	0xbdcb5d5c	-0.09929916
48	0xbda021f5	-0.07818977
49	0xbe387447	-0.18013106
50	0x3e54f604	0.20796973
51	0xbcf62612	-0.03004745
52	0x3d8a9b38	0.06767887
53	0xbeb028a4	-0.34406006
54	0xbea9fd58	-0.33201098
55	0xbd79ef5a	-0.06101928
56	0x3e816c1d	0.25277796
57	0x3d92e916	0.07173364
58	0x3df384ce	0.11890565
59	0xbe57fac8	-0.21091759
60	0xbe02f57e	-0.1278896
61	0xbe72a7c3	-0.23696809
62	0xbe629e8a	-0.2213079
63	0x3eabf130	0.3358245
64	0xbd7f6968	-0.062356383
65	0xbe473ea8	-0.19457495
66	0xbd8b1b22	-0.067922845
67	0x3ebde223	0.3708659
68	0x3dc70278	0.09717268
69	0xbd0327b1	-0.032020275
70	0x3d9bd8c2	0.07609703
71	0x3cfe0a4e	0.031010773
72	0x3e73d1af	0.23810457
73	0x3e3c16db	0.18368094
74	0xbede9095	-0.43469682
75	0x3e8d6c06	0.27621478
76	0x3c224dfc	0.009906288
77	0xbda8d125	-0.08243016
78	0x3dc22964	0.09480551
79	0x3daa7e67	0.083248906
80	0x3d66ad14	0.056317404
81	0x3e89ac8b	0.26889452
82	0xbca6dfdb	-0.020370414
83	0x3e89727c	0.26845157
84	0xbea41d38	-0.32053542
85	0x3ecf9098	0.40540004
86	0x3dd2167a	0.10258193
87	0xbe27805d	-0.1635756
88	0x3e82340e	0.2543034
89	0xbe86ce76	-0.26329392
90	0xbd672861	-0.056434993
91	0xbd1e5fb4	-0.03866549
92	0xbe4640cd	-0.19360657
93	0xbead502d	-0.33850232
94	0x3d218f6e	0.039443426
95	0xbe07bd10	-0.13255715
96	0xbe8be109	-0.27320126
97	0x3d8d596e	0.06901823
98	0x3e5d13ec	0.21589631
99	0xbcb93bfe	-0.022611614
100	0x3e950dcd	0.29112092
101	0x3d500f1c	0.05079566
102	0x3a90d7f0	0.0011050683
103	0xbd9d04e5	-0.07666949
104	0x3ccb4ba0	0.024816334
105	0xbe147038	-0.14495933
106	0x3d1c43a2	0.038150437
107	0xbe29ab50	-0.16569257
108	0x3d08feb8	0.033446044
109	0xbd07ab22	-0.03312219
110	0x3ebad6f6	0.36492127
111	0x3ddb36d8	0.1070382
112	0xbde0ba46	-0.10973029
113	0xbe60be53	-0.21947603
114	0x3e8378c5	0.25678077
115	0x3e8ba690	0.27275515
116	0x3b6f85cb	0.0036548253
117	0xbe1cd5c0	-0.15315914
118	0x3ddd69ec	0.108112186
119	0xbe5bee2e	-0.21477577
120	0xbe486306	-0.19569024
121	0x3e6a6b01	0.22892381
122	0x3d3e399b	0.046441656
123	0x3dbc1a50	0.09184706
124	0x3db56128	0.08856422
125	0xbea19174	-0.31556284
126	0x3e0aa633	0.13539962
127	0xbde89278	-0.11356062
128	0xbe8f754d	-0.2801918
129	0x3d9f0d16	0.07766168
130	0xbde9e906	-0.11421399
131	0x3e9c4339	0.30520037
132	0x3e8103bd	0.25198165
133	0xbc151ecb	-0.00910158
134	0x3e88ea4a	0.26741248
135	0xbccbc132	-0.024872396
136	0xbd7e30f2	-0.062058397
137	0x3ea3ae2a	0.31968814
138	0xbe317636	-0.1733025
139	0x3d639f76	0.055571996
140	0x3e31b299	0.17353286
141	0x3dc5ef7c	0.09664819
142	0xbee68f74	-0.4503132
143	0xbe14f46a	-0.14546362
144	0x3d56d683	0.052450668
145	0xbe71a50f	-0.23598121
146	0xbda55c8e	-0.08074294
147	0xbc0f5c3c	-0.008750018
148	0x3d770ec4	0.060316816
149	0x3d4bbc83	0.049740326
150	0x3ed0adb9	0.4075754
151	0x3e390d94	0.18071586
152	0x3e8003fa	0.25003034
153	0x3d92ae7e	0.07162188
154	0x3d8394c4	0.06424859
155	0xbdc63a71	-0.096791156
156	0xbdc54228	-0.09631759
157	0xbdfc6161	-0.12323261
158	0xbe0652d7	-0.13117538
159	0x3d92df04	0.07171443
160	0xbe0fffae	-0.14062378
161	0xbec4c9c6	-0.3843519
162	0x3e03ef5c	0.12884277
163	0xbeaa8714	-0.3330618
164	0x3d917c2e	0.071037635
165	0xbe4a5190	-0.19757676
166	0xbd63f5bc	-0.055654272
167	0x3e94d3c8	0.29067826
168	0x3e154512	0.1457713
169	0xbea36472	-0.3191257
170	0xbdd09602	-0.10184862
171	0xbe641aac	-0.222758
172	0x3d17eaa4	0.037089005
173	0xbc4e2124	-0.0125811435
174	0xbd7ed27d	-0.062212456
175	0xbd2df96a	-0.042474188
176	0x3d3326e0	0.043738246
177	0xbc8a366e	-0.016871657
178	0x3e25597b	0.16147415
179	0xbb8020ad	-0.0039101453
180	0xbead68a6	-0.33868903
181	0xbe88972e	-0.2667784
182	0x3e34eeae	0.17669174
183	0xbd4803ec	-0.048831865
184	0x3e4ef1b1	0.20209385
185	0xbc1f97d2	-0.009740787
186	0xbe568842	-0.20950416
187	0xbe578d4a	-0.21049991
188	0xbeaf6a70	-0.34260893
189	0x3ea430eb	0.3206857
190	0xbe89fa0a	-0.26948577
191	0xbd5aed9e	-0.053449266
192	0x3e3fd13f	0.18732165
193	0xbdd7a2ac	-0.10529074
194	0xbd6b1c0c	-0.057399794
195	0xbe2b2009	-0.16711439
196	0xbdb1876a	-0.08668406
197	0x3d2f9077	0.04286238
198	0x3d9f2c9e	0.07772182
199	0x3ddb6ff2	0.10714711
200	0xbc06af28	-0.008220471
201	0xbeee3fa1	-0.4653292
202	0xbdcaf5d4	-0.09910169
203	0x3e371bde	0.17881724
204	0xbdc668d3	-0.096879624
205	0x3e324690	0.1740973
206	0xbd997e56	-0.074948
207	0x3e75043d	0.23927398
208	0x3e34bd36	0.17650303
209	0x3e33b48d	0.17549343
210	0x3e86e7b5	0.26348653
211	0x3dc75802	0.09733583
212	0x3e101f8e	0.14074537
213	0xbe4e3a38	-0.20139396
214	0xbe76ede7	-0.2411419
215	0xbe82bac2	-0.2553311
216	0xbe5e9e60	-0.21740103
217	0x3e99ae48	0.3001578
218	0x3e81fb54	0.2538706
219	0x3e5146c4	0.20437151
220	0x3dc00c0c	0.09377298
221	0xbdb23a4a	-0.08702524
222	0xbd848aa3	-0.06471755
223	0x3e785709	0.24251951
224	0xbdf1b30e	-0.1180173
225	0xbe663218	-0.22480047
226	0xbe159e73	-0.14611225
227	0xbe26f924	-0.16305977
228	0xbe0f07c2	-0.13967803
229	0xbdb04b88	-0.086081564
230	0x3ea56746	0.32305354
231	0xbe104b2c	-0.14091176
232	0xbb50099f	-0.0031744016
233	0xbee812ea	-0.4532693
234	0x3e2bfc08	0.16795361
235	0xbe12f598	-0.14351499
236	0x3dc3f53f	0.09568261
237	0x3d1e13b2	0.038593
238	0xbc984aa1	-0.018590273
239	0x3e5b9a14	0.21445495
240	0xbddcd6d2	-0.10783161
241	0xbe4f1203	-0.20221715
242	0xbdf351f6	-0.11880867
243	0xbe4ffb30	-0.20310664
244	0x3d9837d3	0.074325226
245	0x3e8562a6	0.26051825
246	0xbe259de2	-0.16173509
247	0x3e61ca97	0.22049938
248	0xbe2eaa8d	-0.17057247
249	0xbd8af07b	-0.06784149
250	0xbec1b1ee	-0.37831062
251	0xbe12589a	-0.14291611
252	0x3e9c01f2	0.30470234
253	0x3e4f2a5f	0.20231007
254	0x3ba2f424	0.0049729515
255	0xbd322939	-0.043496344

net.0.bias f4 [256]
0	0xbe8a2d66	-0.2698776
1	0xbc4342b4	-0.011917759
2	0xbe330e0f	-0.17485832
3	0xbdbba983	-0.09163191
4	0x3de754e8	0.112954915
5	0xbe94be5a	-0.29051477
6	0xbe924068	-0.28564763
7	0x3d19740b	0.037464183
8	0xbdafff4c	-0.08593616
9	0xbe23ddaa	-0.16002527
10	0xbd4de506	-0.050267242
11	0xbcc93df4	-0.024565674
12	0xbe38006e	-0.17968914
13	0x3c25fb50	0.010130718
14	0x3db9c398	0.0907051
15	0xbec6ea41	-0.38850597
16	0xbe227e64	-0.15868527
17	0x3e8d4632	0.27592617
18	0xbdba1be6	-0.090873525
19	0x3d062df3	0.032758664
20	0xbe4ec22a	-0.20191255
21	0x3d04619e	0.032319658
22	0xbdc6d8d3	-0.09709325
23	0xbe7f01df	-0.24903058
24	0x3de8398a	0.113391
25	0x3e5308a2	0.20608762
26	0x3ca36224	0.019944258
27	0xbe75ffd6	-0.24023375
28	0x3d5dc3f7	0.054141965
29	0x3e1509c7	0.14554511
30	0x3cfe3df0	0.031035393
31	0x3e22469e	0.15847251
32	0xbe162d2c	-0.14665669
33	0xbe94d35d	-0.29067507
34	0xbd319375	-0.043353517
35	0xbb23347c	-0.002490311
36	0xbda14a78	-0.07875532
37	0x3da7ad48	0.08187348
38	0xbe9416a2	-0.28923517
39	0x3b8e5f6b	0.004344871
40	0x3e146242	0.14490607
41	0xbd3ec61a	-0.046575643
42	0xbe661b22	-0.22471288
43	0xbdf50187	-0.11963182
44	0x3dc4eff2	0.096160784
45	0xbcb1e9c9	-0.021717923
46	0xbc77cb6f	-0.015124186
47	0xbe2b11ea	-0.16706052
48	0xbdbc42d5	-0.09192435
49	0x3e986666	0.29765624
50	0xbe8bcb3c	-0.27303493
51	0xbd879f96	-0.066222355
52	0xbe94142b	-0.28921637
53	0x3d03220f	0.032014903
54	0xbe3b70a0	-0.18304682
55	0x3e62528a	0.22101799
56	0xbea59efe	-0.32347864
57	0xbe8f3f42	-0.2797795
58	0x3e2cf96a	0.16892019
59	0xbd10684d	-0.03525572
60	0xbe6910fc	-0.22760385
61	0x3e5dbb56	0.21653494
62	0xbe53b9a5	-0.20676287
63	0xbe90e96e	-0.28303093
64	0x3ec0a3d3	0.37624988
65	0x3c977456	0.01848809
66	0x3ea0f3ca	0.31435996
67	0xbdd9cede	-0.1063516
68	0x3e049946	0.12949094
69	0xbe11fe9c	-0.14257282
70	0xbb204c5a	-0.0024459572
71	0xbec911e3	-0.3927146
72	0xbdc1c1a2	-0.09460761
73	0xbd0e7ca5	-0.03478684
74	0xbeb06036	-0.34448403
75	0xbeac1edf	-0.33617303
76	0xbc3da4e2	-0.011574956
77	0xbed2535a	-0.41079217
78	0x3dc0a138	0.0940575
79	0x3e9bcdab	0.3043035
80	0xbde6bdad	-0.112666465
81	0xbd50afc1	-0.050948862
82	0xbe94cdcd	-0.29063264
83	0xbe85d00c	-0.2613529
84	0xbe9b5a96	-0.3034255
85	0x3e9be037	0.304445
86	0xbd79b436	-0.06096288
87	0x3e8e4db6	0.27793664
88	0x3e3c1b7b	0.18369858
89	0x3d1fbbec	0.038997576
90	0x3e8b8325	0.27248493
91	0xbe18f01a	-0.14935341
92	0x3ecaae17	0.39585945
93	0x3eb61c5c	0.3556851
94	0xbe42e1a5	-0.19031389
95	0xbe828668	-0.2549317
96	0x3d74e056	0.059784256
97	0x3b05af34	0.0020398619
98	0xbe67cf11	-0.22637583
99	0xbed07380	-0.4071312
100	0xbe813110	-0.25232744
101	0x3e23c40d	0.15992756
102	0x3d8b04c2	0.06788017
103	0x3e4430b0	0.19159198
104	0xbe659e47	-0.2242366
105	0xbe9017dd	-0.28143206
106	0xbeaf43fd	-0.34231558
107	0xbdfa2a3c	-0.12215087
108	0x3d21627f	0.039400574
109	0xbe58c890	-0.21170259
110	0xbea7957a	-0.3273123
111	0xbe93a164	-0.2883407
112	0xbe6b84ea	-0.22999921
113	0xbe16f71c	-0.14742702
114	0xbe578e7c	-0.21050447
115	0xbeb031ed	-0.3441309
116	0xbdf390f4	-0.11892882
117	0x3e45afc9	0.19305338
118	0x3de199b8	0.11015648
119	0x3e4986c4	0.19680315
120	0x3e421e26	0.18956813
121	0x3d803c17	0.06261461
122	0x3dee8684	0.116467506
123	0x3e9eef94	0.3104216
124	0x3e6676e8	0.22506297
125	0xbce404f9	-0.027834402
126	0xbd2da5a6	-0.042394303
127	0x3cfde47a	0.030992735
128	0x3d8f05b3	0.06983509
129	0xbe5c1d5e	-0.21495578
130	0xbe79fbba	-0.24412432
131	0x3e3b6184	0.18298918
132	0xbd8726d6	-0.06599204
133	0x3dea7553	0.11448159
134	0x3dca4ed0	0.098783135
135	0xbd4b91f1	-0.049699727
136	0x3ddaf398	0.10690993
137	0xbd9487ec	-0.072524875
138	0x3d9c1eca	0.0762306
139	0xbe537ad9	-0.20652331
140	0x3dec07ea	0.11524947
141	0x3e24924a	0.1607143
142	0xbd814408	-0.06311804
143	0xbe57fb8c	-0.21092051
144	0xbd9584c5	-0.073007144
145	0xbe59bb9f	-0.21262978
146	0xbc9bffa2	-0.019042794
147	0xbd721940	-0.05910611
148	0xbe65cf26	-0.22442302
149	0x3e538a94	0.20658332
150	0xbd0cb656	-0.034353577
151	0x3e28c3bc	0.16480917
152	0x3e693570	0.22774291
153	0x3ac370ac	0.0014910898
154	0x3d86985a	0.065720275
155	0xbe1c6866	-0.152742
156	0xbe793127	-0.24335156
157	0xbe944e24	-0.28965867
158	0x3eb95c82	0.3620339
159	0x3d3b9030	0.045791805
160	0xbe061fa6	-0.1309801
161	0xbd7568a4	-0.059914246
162	0x3e1f11d2	0.15534142
163	0x3dd61f26	0.1045516
164	0xbcf8b721	-0.03036076
165	0xbe03de78	-0.12877834
166	0xbe5bef92	-0.21478108
167	0x3dfe80de	0.12426923
168	0xbdae0bfc	-0.084983796
169	0x3e50fb08	0.20408261
170	0x3d8d7bba	0.069083646
171	0xbe7dd8b8	-0.24789703
172	0xbe0eca71	-0.13944413
173	0xbe1479a5	-0.14499529
174	0xbe12f1dc	-0.14350075
175	0x3e8a57ed	0.27020207
176	0xbeabd172	-0.33558232
177	0x3e4b5f74	0.19860631
178	0xbe9315f6	-0.28727692
179	0xbd8d8f3c	-0.069120854
180	0xbe506fe2	-0.2035518
181	0xbe4f74fa	-0.20259467
182	0xbe0c546d	-0.13704081
183	0xbe1d2cfe	-0.15349194
184	0x3e008bec	0.12553376
185	0x3e6a945a	0.22908154
186	0x3d443ae3	0.04790772
187	0x3d93ecb1	0.0722288
188	0xbe84c094	-0.25928175
189	0xbe9e0f51	-0.3087106
190	0x3da79e1c	0.08184454
191	0xbd262da6	-0.040570877
192	0x3d6d7e18	0.05798158
193	0x3eab1e4c	0.33421552
194	0xbe98dce8	-0.29856038
195	0xbdb72468	-0.08942491
196	0x3cb0a774	0.021564223
197	0x3e56bf2c	0.20971364
198	0xbe359922	-0.17734197
199	0xbde7339f	-0.11289143
200	0xbd004e64	-0.03132476
201	0xbe2f31fe	-0.17108914
202	0x3e437f18	0.19091451
203	0xbe1cfb32	-0.15330198
204	0xbcb648b7	-0.02225147
205	0xbe125182	-0.14288905
206	0x3e9dd0e3	0.3082343
207	0xbe8118f9	-0.25214365
208	0x3e1b7abb	0.15183537
209	0x3de6f62c	0.11277422
210	0x3e1179e6	0.14206657
211	0xbc9dc302	-0.019258026
212	0xbe956673	-0.29179725
213	0x3c48bb17	0.012251637
214	0x3e889380	0.26675034
215	0xbe939fb8	-0.28832793
216	0xbe965bac	-0.29366815
217	0xbd9ca4a8	-0.07648593
218	0xbd887bec	-0.06664261
219	0xbe0a618e	-0.13513777
220	0x3d976cb8	0.07393783
221	0xbe24769e	-0.16060874
222	0xbe11462c	-0.14186925
223	0xbe48ad64	-0.19597393
224	0xbd4e4916	-0.05036267
225	0xbd3c4bd4	-0.045970753
226	0x3de235a4	0.110453874
227	0xbe377bf6	-0.17918381
228	0xbdda1550	-0.10648596
229	0x3d358314	0.04431446
230	0x3e5b73e8	0.21430933
231	0x3ea4ceb3	0.3218895
232	0x3e5c4cbe	0.2151365
233	0xbdda0078	-0.10644621
234	0xbddc7b0b	-0.10765656
235	0xbe1fd7e4	-0.156097
236	0xbb129c56	-0.0022371016
237	0xbd33635d	-0.043795932
238	0xbdad2512	-0.08454336
239	0x3e9baa2f	0.30403277
240	0xbdf20d00	-0.11818886
241	0xbe8996de	-0.26872915
242	0x3db39de8	0.087703526
243	0x3e86b295	0.26308122
244	0x3e12f685	0.14351852
245	0xbe376bff	-0.17912291
246	0xbe2a2229	-0.16614594
247	0x3e2d7310	0.16938424
248	0x3dc2b4d3	0.09507146
249	0x3e548180	0.20752525
250	0xbb18d907	-0.0023322718
251	0xbe36b701	-0.17843248
252	0xbe6cc8b5	-0.23123439
253	0xbeca45b6	-0.3950631
254	0xbeabddbd	-0.3356761
255	0x3c422768	0.0118502155

net.3.weight f4 [128, 256]
0	0xbe461521	-0.19343998
1	0xbd778cc0	-0.060436964
2	0xbdaf0a5b	-0.08546897
3	0xbd9bedf6	-0.07613747
4	0xbc75ff70	-0.015014514
5	0xbd5b02f0	-0.0534696
6	0xbbac82aa	-0.0052646
7	0xbd599ff0	-0.053131044
8	0xbc7dceed	-0.0154912295
9	0x3a241864	0.0006259738
10	0xbc8609ee	-0.016362157
11	0xbd814ec2	-0.0631385
12	0x3d96f734	0.07371369
13	0x3c4dbbb0	0.012556955
14	0x3cda5ded	0.026656115
15	0xbdae55de	-0.085124716
16	0xbd43701c	-0.047714338
17	0xbdebf317	-0.11520975
18	0x3ded039c	0.11572954
19	0xbd9f9775	-0.0779256
20	0xbe3c4683	-0.18386273
21	0xbe19d8aa	-0.15024057
22	0x3cdf8b7c	0.027288191
23	0x3cd91ab8	0.026501998
24	0x3a87ccce	0.0010360719
25	0x3e012bf0	0.12614417
26	0xbd0d39ca	-0.03447894
27	0xbe1573b9	-0.14594926
28	0x3b7cedda	0.003859392
29	0xbc1da20f	-0.009621157
30	0xbbcc787d	-0.0062399493
31	0x3d82c0ee	0.06384455
32	0x3df40cc9	0.11916501
33	0xbb8a6a82	-0.0042241225
34	0x3c2b7837	0.010465673
35	0xbd678b29	-0.056529198
36	0x3c45da20	0.012075931
37	0xbdbc5a36	-0.09196894
38	0x3e2c51d3	0.16828088
39	0xbdd11e8a	-0.10210903
40	0x3ce80108	0.028320804
41	0x3db6c9c3	0.08925202
42	0x3db957bc	0.09049937
43	0xbe3c4659	-0.1838621
44	0xbcabc6bc	-0.020968787
45	0x3c223b3b	0.009901817
46	0xbda95a60	-0.08269191
47	0x3d193171	0.037400667
48	0xbb831cc5	-0.0040012323
49	0x3c51c640	0.012803614
50	0x3d652637	0.055944648
51	0x3db5441c	0.088508815
52	0xbc15d24a	-0.009144375
53	0x3c50f9ee	0.0127549
54	0xbd06dd4a	-0.03292588
55	0xbdf682e3	-0.120366834
56	0xbd237db5	-0.039914805
57	0x3cb97303	0.02263785
58	0x3ce0c696	0.027438443
59	0xbca39133	-0.019966697
60	0x3d2f787a	0.042839505
61	0xbd94359a	-0.07236786
62	0xbdc59945	-0.096483745
63	0x3d27c452	0.04095871
64	0x3daba8bf	0.08381795
65	0x3d0dd8a7	0.034630444
66	0x3d1ee62c	0.038793728
67	0xbde38d2c	-0.11110911
68	0x3d3acf1b	0.045607667
69	0xbd553dc0	-0.052060843
70	0x3d4a4746	0.049384378
71	0xbb9855ea	-0.0046489136
72	0x3d6dd262	0.058061965
73	0xbddecd07	-0.108789496
74	0xbd1d11c9	-0.03834704
75	0x3dd25870	0.10270774
76	0x3dc79d24	0.09746769
77	0xbc3142b8	-0.01081913
78	0xbb8b5c5c	-0.0042529535
79	0xbc8998c2	-0.016796473
80	0xbcfefd27	-0.031126572
81	0x3daf1ff8	0.085510194
82	0xbe249dc6	-0.16075811
83	0xbd87269c	-0.06599161
84	0xbc28a72f	-0.010293766
85	0x3cc5356e	0.024073329
86	0xbc96f3e6	-0.018426847
87	0x3d622760	0.055213332
88	0xbd700ca0	-0.05860579
89	0x3c761aa5	0.015021001
90	0xbba07d4a	-0.004897748
91	0x3ca4b65e	0.02010649
92	0xbcf87e87	-0.03033377
93	0x3d9f67a1	0.077834375
94	0x3dcb23fc	0.09918973
95	0xbe03a452	-0.12855652
96	0xbd9a7a55	-0.07542864
97	0xbcdcc06a	-0.026947219
98	0xbddfa25d	-0.1091964
99	0xbc2b1949	-0.01044304
100	0xbd94c622	-0.07264353
101	0xbccb2e82	-0.02480245
102	0x3d564a3e	0.052316897
103	0xbd0f4d1f	-0.034985658
104	0x3d30dbab	0.04317824
105	0xbdc4ca28	-0.09608871
106	0xbda7e274	-0.081974894
107	0xbc242bb2	-0.010020183
108	0xbd1eaafd	-0.038737286
109	0x3c19f50b	0.009396802
110	0x3c1c8754	0.009553749
111	0xbd5b8a56	-0.053598724
112	0xbae472b4	-0.0017429204
113	0x3dc54ca2	0.09633757
114	0x3c7fa4ad	0.015603227
115	0x3beb555b	0.007181806
116	0x3b69d3f0	0.0035679303
117	0x3d2bdcd8	0.04195866
118	0xbd3d2598	-0.04617843
119	0x3c93f09d	0.01805907
120	0x3c9f6a20	0.019459784
121	0x3dc40d7a	0.09572883
122	0xbd8d7eb2	-0.06908931
123	0x3d1bf845	0.038078565
124	0x3d8aff52	0.0678698
125	0x3c317838	0.010831885
126	0xbca7b319	-0.020471143
127	0x3d20759f	0.039174672
128	0xbdcdaf34	-0.10043183
129	0xbd991872	-0.07475366
130	0xbd6a3c71	-0.057186548
131	0xbc87cec0	-0.016578078
132	0xbd6081c8	-0.05481127
133	0xbc97d902	-0.018536095
134	0x3b9e73ef	0.0048355977
135	0x3cd50232	0.026002023
136	0x3dbec89a	0.093156055
137	0xbcb7fcad	-0.022459352
138	0xbb98a056	-0.0046577854
139	0xbd84906d	-0.064728595
140	0xbca49f58	-0.020095512
141	0x3d438eaa	0.047743477
142	0xbceeab20	-0.029134333
143	0xbcbb3dcc	-0.022856615
144	0xbb6cf437	-0.0036156306
145	0xbd58ca0a	-0.052927054
146	0x3db4189a	0.08793755
147	0x3e0035d0	0.12520528
148	0x3e03cd86	0.1287137
149	0xbcbbb90c	-0.022915386
150	0xbb5f1cf6	-0.0034044362
151	0x3cb217ae	0.021739807
152	0xbc97793b	-0.018490424
153	0x3d4a6163	0.04940928
154	0xbd3710b4	-0.044693664
155	0xbdce6e48	-0.10079628
156	0xbe3ec34a	-0.18629184
157	0xbcbbec12	-0.022939716
158	0x3e088164	0.13330609
159	0xbd3c2f40	-0.0459435
160	0xbd94c6ea	-0.07264502
161	0x3dfea8ee	0.124345645
162	0x3d2b1f6a	0.041778006
163	0x3ca28ce7	0.019842578
164	0x3ca23ac6	0.019803416
165	0xbd687650	-0.056753457
166	0x3d9ff826	0.078110024
167	0xbc299714	-0.010350961
168	0xbcc3d1ee	-0.023903813
169	0x3d2ab6b4	0.041678146
170	0xbc334e56	-0.01094397
171	0xbd1856a1	-0.03719199
172	0xbd6b850f	-0.05749994
173	0x3c6983ff	0.014252662
174	0xbdcaebeb	-0.09908279
175	0xbce42e6c	-0.027854167
176	0x3d8be8e0	0.06831527
177	0x3c743566	0.014905309
178	0xbcb1658f	-0.021654872
179	0xbe1d8302	-0.15382007
180	0x3d6c5964	0.057702437
181	0xbccb69cd	-0.024830723
182	0xbd9653f7	-0.07340234
183	0x3cd03453	0.025415575
184	0xb93ac148	-0.00017810345
185	0xbdb8d472	-0.09024896
186	0xbdbf4544	-0.09339383
187	0xbb7fecb8	-0.0039051007
188	0x3dbf2216	0.09332673
189	0x3e1f13d2	0.15534905
190	0x3db3865c	0.087658614
191	0x3d82fca2	0.06395842
192	0x3da0947f	0.078408234
193	0x3e08b623	0.1335073
194	0xbe7bcd95	-0.24590142
195	0xbd8427e1	-0.06452919
196	0xbd171ab3	-0.036890697
197	0xbcd6d7eb	-0.026226005
198	0xbbd9700c	-0.0066356715
199	0xbc376c38	-0.011195235
200	0xbd8f72ff	-0.07004356
201	0xbe0b99c8	-0.13632882
202	0x3a310a90	0.0006753588
203	0x3d4c3fa4	0.04986538
204	0x3df6aa00	0.12044144
205	0x3cf08fa0	0.02936536
206	0x3d0222e4	0.031771556
207	0xbe1747f1	-0.14773537
208	0xbd0405bb	-0.032232028
209	0x3d77ed6d	0.06052916
210	0xbc1b85af	-0.009492322
211	0xbbdbc35a	-0.0067066373
212	0xbe0e2ea5	-0.13884981
213	0x3d091b2d	0.033473182
214	0x3bca46e6	0.0061730025
215	0xbd817901	-0.06321908
216	0xbc80910c	-0.015694164
217	0xbde2b6b7	-0.11070006
218	0x3d71e2c4	0.05905415
219	0x3c8adaa8	0.016949967
220	0xbd9bc648	-0.076061785
221	0xbdc01174	-0.09378329
222	0x3d8884d6	0.066659614
223	0x3d843d60	0.06457019
224	0x3d314152	0.043275185
225	0x3c75a774	0.014993537
226	0xbd94a4ac	-0.07257971
227	0x3c288317	0.0102851605
228	0x3d55999c	0.052148446
229	0xbd16a6ae	-0.036780052
230	0xbcb6b1de	-0.02230161
231	0xbc6b54a1	-0.014363439
232	0xbdcda056	-0.10040347
233	0xbd19a856	-0.037514053
234	0x3c9b42b4	0.018952705
235	0xbe5c27ac	-0.21499509
236	0x3e09da2e	0.13462135
237	0xbb416891	-0.002951179
238	0xbe2fa9ff	-0.17154692
239	0x3d3cf24c	0.04612951
240	0xbde8a1c8	-0.11358982
241	0x3dbb5170	0.09146392
242	0xbc7a9779	-0.015294903
243	0x3d295fe7	0.041351225
244	0x3d433d68	0.047665983
245	0xbcfc641c	-0.030809455
246	0x3dba502e	0.09097324
247	0x3d86c720	0.06580949
248	0xbdc64578	-0.09681219
249	0x3c09b12d	0.008404058
250	0xbdf59ef9	-0.11993212
251	0x3de92511	0.11384023
252	0x3e12edd2	0.14348534
253	0xbd18adec	-0.03727524
254	0x3c814560	0.01578015
255	0xbd16d258	-0.036821693

net.3.bias f4 [128]
0	0x3ceb56f8	0.028727993
1	0x3db8ae98	0.09017676
2	0xbe01f997	-0.12692867
3	0xbc897c0f	-0.016782789
4	0xbde81f51	-0.11334098
5	0xbd64a242	-0.055818804
6	0xbc8d85fc	-0.017275803
7	0x3df46e08	0.11935049
8	0xbcffd212	-0.031228099
9	0x3d083a7a	0.033258893
10	0xbde94c50	-0.113915086
11	0xbbb3e1de	-0.005489572
12	0x3c2c1d21	0.010504992
13	0xbcd6df02	-0.026229385
14	0x3c9ffcb2	0.019529674
15	0xb98c7a10	-0.00026793825
16	0x3da3e028	0.08001739
17	0x3d7afe18	0.06127748
18	0xbda104d0	-0.07862246
19	0x3d046364	0.03232135
20	0x3de43312	0.111425534
21	0xbc436807	-0.0119266575
22	0x3d47233d	0.04861759
23	0xbe2f075b	-0.1709265
24	0xbd28b802	-0.04119111
25	0xbb60cee7	-0.003430301
26	0xbd37cc1e	-0.044872396
27	0xbb84c1ad	-0.0040514083
28	0xbd2626a1	-0.040564183
29	0xbd95ce9e	-0.073148
30	0x3cfc9ba4	0.030835934
31	0x3dfa8204	0.1223183
32	0x3d365bcc	0.044521138
33	0x3e1bc6a1	0.1521249
34	0x3cf00e9a	0.029303838
35	0x3c5cda1e	0.013479738
36	0xbdc14b7c	-0.094382256
37	0xbda3c4b2	-0.07996501
38	0x3d4446d9	0.047919128
39	0x3da92594	0.082591206
40	0xbddacfe3	-0.106841825
41	0xbb8e31bc	-0.004339425
42	0x3be55b77	0.006999429
43	0xbd098f30	-0.03358382
44	0x3d9c1212	0.07620634
45	0xbd7629fa	-0.060098626
46	0xbe0751d4	-0.13214809
47	0x3d72fd68	0.0593237
48	0x39be1ae4	0.0003625966
49	0x3df5dda2	0.12005164
50	0xbda45fc0	-0.08026075
51	0x3d7f75c0	0.062368155
52	0x3d259906	0.040429138
53	0x3d980e00	0.07424545
54	0xbdb52af4	-0.08846083
55	0xbd4e3ff2	-0.05035395
56	0x3c158980	0.009127021
57	0x3e1091d9	0.14118136
58	0xbce7d1e7	-0.028298331
59	0xbe007f24	-0.125485
60	0x3d47405c	0.048645362
61	0x3d6d701a	0.057968237
62	0xbdb2f9e0	-0.08739066
63	0x3dceeb72	0.101035014
64	0xbce7a499	-0.028276728
65	0xbdd8224e	-0.10553418
66	0x3cd791de	0.026314672
67	0xbd608cd6	-0.05482181
68	0xbcdf62bc	-0.02726876
69	0x3cbb2d56	0.022848766
70	0xbd88e4cc	-0.066842645
71	0xbca3ba2d	-0.019986236
72	0x3b19da00	0.0023475885
73	0x3c853fa6	0.016265702
74	0x3cc44762	0.02395982
75	0xbbfc1c6b	-0.0076938174
76	0xbbc9d0c5	-0.0061589205
77	0xbd170543	-0.036870252
78	0x3c693c84	0.014235619
79	0x3de6b4a4	0.11264923
80	0x3d22d24f	0.039751347
81	0x3cf6808c	0.030090593
82	0xbd936df8	-0.07198709
83	0xbb2daa22	-0.0026499112
84	0xbd6057dd	-0.054771293
85	0xbc64f76e	-0.013975007
86	0xbdf59d0b	-0.11992844
87	0xbca98543	-0.020693427
88	0x3dd057ce	0.101729974
89	0xbd7373bf	-0.059436556
90	0x3d746f7e	0.05967664
91	0xbc4b1177	-0.012394301
92	0xbe13a440	-0.14418125
93	0x3db3327c	0.087498635
94	0x3d35448a	0.044254817
95	0xbd5baed5	-0.05363353
96	0x3dfb2bda	0.122642234
97	0xbdc9b9b2	-0.09849872
98	0x3d057b63	0.032588374
99	0xbd8964d3	-0.06708684
100	0x3d700c0c	0.05860524
101	0xbdcf2d4b	-0.10116061
102	0xbd1a301c	-0.037643537
103	0x3cefdeaa	0.02928098
104	0xbd66a74a	-0.056311883
105	0x3e062044	0.13098246
106	0x3b6f22fc	0.0036489358
107	0xbd91983c	-0.071091145
108	0x3dff3de2	0.12462975
109	0x3c3b5aee	0.011435254
110	0xbd868839	-0.06568951
111	0x3cde7a44	0.02715791
112	0xbb96cfed	-0.0046024234
113	0xbd8f3edc	-0.06994411
114	0x3db18428	0.08667785
115	0x3ca4bf10	0.020110637
116	0x3c5d7183	0.013515833
117	0xbc3a16f8	-0.011358015
118	0xbd98cb51	-0.074606545
119	0x3e003aa0	0.12522364
120	0xbdf31693	-0.1186954
121	0xbdbe3530	-0.092874885
122	0xbd4bfd47	-0.04980209
123	0xbd2a9b43	-0.041651975
124	0xbdc6be34	-0.09704247
125	0x3bce08f6	0.0062876893
126	0xbcdc08b6	-0.026859622
127	0xbdc3045a	-0.09522314

net.6.weight f4 [64, 128]
0	0x3d0e395d	0.034722675
1	0xbcfe58cf	-0.031048207
2	0x3d3b30e8	0.045700938
3	0xbd46dfbb	-0.04855321
4	0x3d1a7a4a	0.03771428
5	0x3e23085c	0.15921158
6	0x3ada1167	0.0016637266
7	0xbe07a9df	-0.13248394
8	0x3d27f0e3	0.04100121
9	0xbbb2672c	-0.005444428
10	0xbda44d06	-0.080225036
11	0x3c1be1cf	0.009514286
12	0xbc80b6c9	-0.015712159
13	0x3d0bae64	0.03410186
14	0x3cea8736	0.028628927
15	0x3c6f3b25	0.0146015035
16	0xbb0ba08e	-0.0021305415
17	0xbc2015f7	-0.009770862
18	0x3dac8cea	0.08425315
19	0x3e734c7e	0.23759648
20	0xbdd410b6	-0.1035475
21	0xbdf357aa	-0.11881955
22	0x3ced4849	0.028965132
23	0x3dc756ce	0.097333536
24	0x3d4f389e	0.050591104
25	0xbe1db16e	-0.15399715
26	0x3c4cd380	0.012501597
27	0xbce37213	-0.027764356
28	0x3d132ff8	0.03593442
29	0x3d8a7070	0.06759727
30	0x3d9cab28	0.07649833
31	0xbe1d54ed	-0.15364428
32	0xbd1bd180	-0.03804159
33	0xbd6836ce	-0.05669289
34	0x3c4925e4	0.0122771
35	0x3d9e97c0	0.07743788
36	0x3db55f11	0.08856023
37	0xbd3bcb8e	-0.04584842
38	0xbcfdc9c6	-0.030980002
39	0x3d2fb0e4	0.042893305
40	0x3cc62425	0.024187157
41	0xbc0118d3	-0.007879454
42	0x3d2b190c	0.041771933
43	0xbcd65f90	-0.026168615
44	0xbd84df67	-0.06487923
45	0xbe12f45a	-0.14351025
46	0x3dbd1816	0.0923311
47	0xbd04223c	-0.03225921
48	0xbd1ba124	-0.037995473
49	0xbe3d5ae0	-0.18491697
50	0x3cc1baea	0.023648698
51	0xbd57e438	-0.05270788
52	0xbcacd2e8	-0.021096662
53	0xbd015235	-0.03157254
54	0xba63082d	-0.0008660581
55	0x3c35e377	0.011101595
56	0x3d002322	0.031283505
57	0xbd77fb6a	-0.0605425
58	0xbd78435e	-0.06061112
59	0xbccb3fbd	-0.024810666
60	0xbb818668	-0.00395279
61	0xbd9be3ff	-0.07611846
62	0x3dc1a12a	0.09454568
63	0x3d9512e8	0.07278997
64	0x3e1bb4ae	0.15205643
65	0x3d38e5f4	0.045141175
66	0x3d8f4e0e	0.069973096
67	0xbd526716	-0.05136784
68	0xbd12c9e3	-0.035837065
69	0x3cff24b8	0.031145439
70	0x3d0f87e2	0.035041697
71	0x3ce87d17	0.02837996
72	0xbd8be7a5	-0.06831292
73	0x3d56eb6a	0.052470602
74	0xbd271081	-0.040787224
75	0x3da5355e	0.080668196
76	0x3c9c0230	0.019044012
77	0xbd802935	-0.062578596
78	0xbd1d9af4	-0.038477853
79	0xbd0a1a78	-0.03371665
80	0xbbd38fa2	-0.0064563313
81	0x3d7d0d48	0.061780244
82	0xbcd7a254	-0.026322521
83	0x3e6db8fb	0.23215096
84	0xbc8fecca	-0.017568965
85	0x3cb9ba58	0.022671863
86	0x3dfe9058	0.12429875
87	0xbd73e6e2	-0.05954636
88	0xbd7ae6dc	-0.06125532
89	0x3d6cf54e	0.05785113
90	0x3d238f74	0.03993173
91	0xbcea3e50	-0.028594166
92	0xbd50ec9a	-0.05100689
93	0xbdc261c8	-0.094913065
94	0x3cd60b10	0.026128322
95	0xbc41abc4	-0.011820737
96	0x3c347bc8	0.01101584
97	0x3e0f1d15	0.13975938
98	0x3c2a97bc	0.010412153
99	0x3e5c9359	0.21540584
100	0x3d95de56	0.07317798
101	0x3c5f7e05	0.013640885
102	0xbda44641	-0.08021212
103	0x3d9ce750	0.07661307
104	0xbdb06ea2	-0.086148515
105	0xbdbc4966	-0.09193687
106	0xbce85054	-0.028358616
107	0x3d493265	0.049120326
108	0x3c80be4c	0.01571574
109	0xbd94831e	-0.07251571
110	0xbd9d2850	-0.076737046
111	0xbd6669ab	-0.056253117
112	0xbd3fe010	-0.046844542
113	0x3d59a558	0.0531362
114	0x3d8715e0	0.06595969
115	0xbccb0e61	-0.02478713
116	0xb9f10f8c	-0.00045978685
117	0xbd1f6c85	-0.03892185
118	0xbc1d463a	-0.009599263
119	0xbdb6440c	-0.08899698
120	0xbcee09ea	-0.029057462
121	0x3c59a2f8	0.013283484
122	0xbd4ee265	-0.050508875
123	0xbcd43e30	-0.02590856
124	0xbe0aa488	-0.13539326
125	0xbddd4a20	-0.10805154
126	0x3dbbb29a	0.09164925
127	0x3d99fcd7	0.075189285
128	0x3d85bf30	0.06530607
129	0x3d22e096	0.039764963
130	0xbe160398	-0.14649808
131	0xbbd9e1f9	-0.0066492525
132	0x39aaebe0	0.00032600667
133	0x3d004d8a	0.031323947
134	0x3c4d5479	0.012532347
135	0x3c5356ba	0.012899095
136	0x3c6811d0	0.014164403
137	0x3d30eb76	0.043193303
138	0xbc2baa3f	-0.010477602
139	0x3ba23a4b	0.0049507967
140	0xbdadb55b	-0.084818564
141	0x3dd0471e	0.101698145
142	0x3dfd763a	0.123760656
143	0xbd37053a	-0.04468272
144	0x3d8476b0	0.0646795
145	0xbd72a80c	-0.059242293
146	0xbda759d8	-0.08171433
147	0xbd625406	-0.055255912
148	0xbd6c2c0e	-0.0576592
149	0x3b98eb48	0.0046667196
150	0x3de125f0	0.10993564
151	0xbccfe9c8	-0.02538003
152	0xbd294d89	-0.04133371
153	0x3ceeb0ef	0.029137103
154	0x3d27ef16	0.040999494
155	0x3d47396e	0.048638754
156	0xbc39308e	-0.01130308
157	0xbdd8fb9a	-0.10594864
158	0x3cb2c43f	0.021822093
159	0xbda99b3a	-0.0828156
160	0xbd81f916	-0.063463375
161	0x3d12e0ce	0.03585892
162	0x3d620e0a	0.05518917
163	0xbcc5e4ec	-0.02415701
164	0x3d739415	0.059467394
165	0xb9ac4b80	-0.00032862648
166	0x3c0119e1	0.007879705
167	0xbddb9871	-0.10722435
168	0xbb95929b	-0.004564596
169	0x3def30c8	0.11679226
170	0x3d529166	0.051408194
171	0x3cad2187	0.021134151
172	0x3d69a7b1	0.05704469
173	0x3c1c1f7d	0.009528992
174	0x3db3367c	0.087506264
175	0xbd83b5f2	-0.06431188
176	0x3dec2de2	0.11532189
177	0xbd5c1e6e	-0.053739958
178	0x3dd67e96	0.10473363
179	0xbdac74d3	-0.0842072
180	0xbcc0555d	-0.023478204
181	0xbbe84bbd	-0.007089107
182	0x3dbe9e38	0.093075216
183	0xbe236221	-0.15955402
184	0x3e476924	0.19473702
185	0x3dad7085	0.08468727
186	0xbded4d05	-0.11586956
187	0x3cf1599b	0.029461673
188	0x3d51121f	0.051042672
189	0xbd313e5f	-0.043272372
190	0xbe594f66	-0.21221694
191	0x3d28b56c	0.041188642
192	0x3d900afc	0.07033345
193	0xbd9b3487	-0.07578378
194	0x3e074f90	0.13213944
195	0x3a90dc88	0.0011052052
196	0x3de5fcee	0.11229883
197	0x3d34454a	0.04401139
198	0x3dbd8b96	0.092551395
199	0xbc8d0651	-0.017214926
200	0xbe216053	-0.15759401
201	0x3dc3c6d2	0.09559406
202	0xbda5ebbe	-0.08101605
203	0x3d5e4914	0.05426891
204	0x3c9eaab8	0.019368514
205	0xbd6a7012	-0.057235785
206	0xbd2908fa	-0.041268326
207	0xbda99749	-0.082808085
208	0xbd2e43cb	-0.04254512
209	0xbd59c52a	-0.053166546
210	0xbd42c93b	-0.04755519
211	0xbd458b04	-0.04822828
212	0x3df3b145	0.11899046
213	0xbe1c7e60	-0.15282583
214	0xbd30c394	-0.043155268
215	0x3a108a4a	0.0005513771
216	0x3de67b84	0.112540275
217	0x3e26cd9a	0.16289368
218	0xbd633194	-0.055467203
219	0xbd12c811	-0.03583533
220	0xbd00c9a3	-0.031442296
221	0xbdfe8cb2	-0.12429179
222	0x3c563ad2	0.013075547
223	0x3dd3ea50	0.10347426
224	0x3c084350	0.00831683
225	0xbe36655e	-0.17812106
226	0x3e02b01a	0.1276249
227	0xbdf258ca	-0.118333414
228	0xbd3859db	-0.045007568
229	0xbd24e71a	-0.040259458
230	0x3d4648ce	0.048409276
231	0xbd46a536	-0.0484974
232	0xbda21e75	-0.079159655
233	0x3c7d4060	0.015457243
234	0x3d2fb5d4	0.042898014
235	0xbd89b90d	-0.06724749
236	0xbc1dd843	-0.00963408
237	0x3e1804f0	0.14845634
238	0xbd7a9db3	-0.06118555
239	0x3db21044	0.08694509
240	0xbd660c14	-0.056163862
241	0xbc41bbb3	-0.011824536
242	0x3d9320cc	0.0718399
243	0x3e33904e	0.17535517
244	0x3d13b755	0.03606351
245	0xbd9b6f12	-0.07589544
246	0x3d942b72	0.07234849
247	0xbd17bf34	-0.03704758
248	0xbd898385	-0.067145385
249	0xbc1095be	-0.008824764
250	0x3d5b4d74	0.053540662
251	0xbd121c8d	-0.03567176
252	0xbd6bcd68	-0.057568938
253	0xbdcec7be	-0.100966915
254	0xbdf852f0	-0.12125194
255	0x3d2d1815	0.042259295

net.6.bias f4 [64]
0	0xbd16088d	-0.03662925
1	0xbca8616b	-0.020554265
2	0xbb7bc375	-0.0038416062
3	0x3e1a7c35	0.15086444
4	0xbc7ad670	-0.015309915
5	0xbdcf97b0	-0.10136354
6	0x3d68b3d2	0.056812115
7	0xbddc5c89	-0.10759837
8	0xbba657b0	-0.005076371
9	0x3e39d7c3	0.18148713
10	0xbd89c166	-0.06726341
11	0x3d687bda	0.05675874
12	0x3ce1a4f2	0.027544472
13	0x3e0e97cc	0.13925093
14	0x3e354ec0	0.17705822
15	0x3b7111e0	0.0036784336
16	0xbe1bb144	-0.1520434
17	0x3d374f92	0.04475362
18	0x3e15f9d1	0.14646079
19	0xbcd01a12	-0.025403056
20	0xbd431ed2	-0.047636814
21	0x3d0c6857	0.034279194
22	0xbc45eb90	-0.012080088
23	0x3d89c7f7	0.067275934
24	0xbdc87750	-0.09788382
25	0x3e109e20	0.1412282
26	0xbdaa6d6a	-0.0832165
27	0xbd2c8e2f	-0.042127784
28	0x3d47dc94	0.048794344
29	0xbe0aac2c	-0.13542241
30	0x3e6857a8	0.22689688
31	0x3ba904f2	0.00515806
32	0x3d93f78c	0.0722495
33	0xbe159eba	-0.1461133
34	0x3c8aaa44	0.016926892
35	0x3dcf8475	0.10132686
36	0x3b46f520	0.0030358508
37	0xbd369b2e	-0.044581585
38	0xbdaa8901	-0.08326913
39	0x3bf7bc8d	0.007560319
40	0x3ddaeae1	0.10689331
41	0x3de9dc06	0.11418919
42	0x3dd93c00	0.10607147
43	0x3e562536	0.20912632
44	0x3d2c2102	0.042023666
45	0xbd79ef74	-0.061019376
46	0x3e36885f	0.17825459
47	0xbda8d1d0	-0.082431436
48	0x3dc02870	0.09382713
49	0xbd5d9c2a	-0.054104008
50	0x3e138d56	0.14409384
51	0xbdc05f42	-0.09393169
52	0x3d89a768	0.06721383
53	0xbd74d806	-0.05977633
54	0xbcf5bc6e	-0.029997077
55	0x3e3b0be0	0.18266249
56	0xbb64ce7b	-0.003491311
57	0x3c77dc78	0.015128247
58	0x3e0d4a08	0.13797772
59	0x3e1eb371	0.15498139
60	0xbd8b6489	-0.06806285
61	0x3e32c8d3	0.17459421
62	0x3d13547e	0.03596925
63	0xbd248321	-0.040164117

net.9.weight f4 [5, 64]
0	0xbe1d8cec	-0.15385789
1	0x3cef416a	0.029205997
2	0xbdf4a0d2	-0.119447365
3	0xbdc0a8dc	-0.09407207
4	0x3e320fc6	0.1738883
5	0x3d731b2a	0.059352078
6	0xbe5b9ed9	-0.21447314
7	0xbe0c6dd0	-0.13713765
8	0xbdbb63cd	-0.09149895
9	0xbd6c3cd2	-0.05767519
10	0xbe017269	-0.126413
11	0xbe1b74dc	-0.15181297
12	0xbe17f92c	-0.14841145
13	0xbe58eae6	-0.21183357
14	0x3c90de39	0.017684089
15	0x3e1eed0e	0.15520117
16	0xbd3783e2	-0.044803508
17	0xbe02f462	-0.12788537
18	0xbe2767ae	-0.16348144
19	0xbd7e10cc	-0.062027737
20	0xbda0195c	-0.07817337
21	0xbe952775	-0.29131666
22	0xbdf78af8	-0.12087053
23	0xbd747841	-0.059684996
24	0x3e14fe6e	0.14550182
25	0x3d17490a	0.03693489
26	0xbe6fc384	-0.23414427
27	0x3da204ce	0.07911073
28	0xbeabbef2	-0.33544117
29	0xbccfb584	-0.025355108
30	0x3d5979dc	0.05309473
31	0xbec5149b	-0.38492283
32	0x3cd85624	0.026408263
33	0x3db0f8fa	0.086412385
34	0xbe5af3e8	-0.21382105
35	0x3db81a56	0.08989398
36	0xbe92ba16	-0.28657597
37	0x3dbbe3e1	0.09174324
38	0x3e404295	0.18775399
39	0x3dfe37d6	0.124129936
40	0x3dad12fd	0.08450887
41	0x3d1fc8e0	0.03900993
42	0xbe655136	-0.22394261
43	0xbded446e	-0.115853176
44	0xbc6f1cd2	-0.014594274
45	0x3deca820	0.11555505
46	0x3e032403	0.12806706
47	0x3d82bf6b	0.06384166
48	0xbe928695	-0.28618303
49	0x3d1634b0	0.03667134
50	0xbccef9d5	-0.025265614
51	0x3dbc193a	0.09184499
52	0x3d126345	0.035739202
53	0xbe39139a	-0.18073884
54	0xbe28a0b8	-0.1646756
55	0x3e022086	0.12707719
56	0xbe2dcbf1	-0.16972329
57	0xbb90956a	-0.004412343
58	0xbcb7c3da	-0.022432256
59	0xbd444585	-0.04791786
60	0x3ce5c6dc	0.028048925
61	0xbe3f5f09	-0.18688597
62	0x3dbed6ec	0.09318337
63	0x3e33fb1f	0.17576264
64	0x3d8ee802	0.06977846
65	0xbe3846b8	-0.17995727
66	0x3e1cd44a	0.15315357
67	0x3e285e54	0.16442233
68	0xbe443571	-0.19161011
69	0xbe7449e8	-0.23856318
70	0x3cfcbbad	0.03085121
71	0x3d8c6c6a	0.06856616
72	0x3cfededf	0.031112133
73	0xbc26530a	-0.010151634
74	0xbedb26cb	-0.42803034
75	0x3ba57919	0.0050498364
76	0x3da2a6e6	0.079419896
77	0x3df443ea	0.11927016
78	0x3d8e8e3a	0.06960721
79	0xbb20fe08	-0.0024565477
80	0xbea800f2	-0.3281322
81	0x3e3fe2f6	0.18738922
82	0x3e25214b	0.16125982
83	0xbea634f4	-0.32462275
84	0x3da7d7ec	0.08195481
85	0x3c720e22	0.014773877
86	0xbe1e8281	-0.15479471
87	0x3e7ab3c8	0.24482644
88	0xbeb24757	-0.34820053
89	0x3db8d0e6	0.09024219
90	0x3e3dcd70	0.185354
91	0xbeb8bd6e	-0.36082023
92	0x3dd1bf91	0.102416165
93	0xbe8c9c7c	-0.27463138
94	0x3da958d6	0.08268897
95	0xbc1bc018	-0.009506248
96	0x3d1e66c8	0.03867224
97	0xbe370e6c	-0.17876595
98	0xbe68f250	-0.22748685
99	0x3dcc8aba	0.099873975
100	0xbde458da	-0.111497596
101	0xbd9648fb	-0.07338139
102	0xbe9d82b7	-0.3076379
103	0x3d538369	0.051638994
104	0xbdbaf77e	-0.09129237
105	0xbe2d0d1d	-0.16899534
106	0x3df2d84d	0.11857662
107	0x3dfc48ea	0.12318595
108	0xbeb137f4	-0.34613
109	0xbe4341dc	-0.19068092
110	0x3d3931de	0.045213573
111	0xbe91e1a7	-0.28492472
112	0x3d4c3db2	0.049863525
113	0xbee29912	-0.44257408
114	0x3d094b6f	0.033519205
115	0xbdeb0028	-0.11474639
116	0x3d0870d7	0.033310737
117	0x3d40ea7f	0.047098633
118	0xbe8b3565	-0.27189174
119	0x3d12842c	0.03577058
120	0x3dbd428a	0.09241207
121	0xbe9e9ce0	-0.3097906
122	0x3d458ebc	0.048231825
123	0xbd483a82	-0.048883922
124	0xbe7c9f16	-0.24670061
125	0x3de8c429	0.113655396
126	0xbd5c5fc9	-0.053802285
127	0xbe81984a	-0.253115
128	0x3c8f284a	0.017475266
129	0xbdfda786	-0.12385468
130	0x3e106755	0.14101918
131	0xbebcd12e	-0.3687834
132	0xbe8fede8	-0.28111196
133	0xbc7932a4	-0.015209828
134	0x3c747a68	0.014921762
135	0x3d5c7e31	0.053831283
136	0x3d645758	0.05574736
137	0xbe819579	-0.2530935
138	0xbee01601	-0.43766788
139	0x3dcb4669	0.09925539
140	0xbea85d70	-0.32883787
141	0x3df8b9a3	0.121447824
142	0x3be0a877	0.00685602
143	0xbdeb4a8b	-0.11488827
144	0x3d0dca15	0.03461655
145	0xbe4f3e8d	-0.20238705
146	0xbea78497	-0.32718346
147	0x3db957fa	0.09049983
148	0x3e09674a	0.13418308
149	0xbf054e44	-0.5207255
150	0x3df6eefd	0.12057302
151	0xbea6f06c	-0.32605302
152	0xbdfab884	-0.12242225
153	0xbf0629ae	-0.5240735
154	0x3d87ba8a	0.066273764
155	0x3d8899d5	0.06669966
156	0xbf1330b0	-0.57496166
157	0x3dde914a	0.108675554
158	0xbe77b71e	-0.24190947
159	0xbc96dd1d	-0.018415982
160	0xbe14eaf6	-0.14542755
161	0x3d7d8e1e	0.06190311
162	0x3da38998	0.07985228
163	0xbe9c1212	-0.30482537
164	0xbddcea75	-0.10786907
165	0xbeb2b02c	-0.34900033
166	0x3b8372ef	0.004011504
167	0xbe9747ec	-0.2954706
168	0xbe8d1d30	-0.2756133
169	0xbe88613c	-0.26636684
170	0xbf65846d	-0.8965519
171	0xbe84431a	-0.25832444
172	0xbed873dc	-0.42275894
173	0xbda38330	-0.079840064
174	0xbeba839a	-0.3642853
175	0x3d4711fa	0.04860113
176	0xbf8b8c11	-1.090212
177	0xbd236c0a	-0.039897956
178	0xbe2cfd04	-0.16893393
179	0x3deea260	0.11652064
180	0x3b9937bd	0.004675834
181	0x3da8bcb0	0.08239114
182	0xbe841f45	-0.25805107
183	0xbe3dba20	-0.18528032
184	0xbf899e09	-1.0751354
185	0x3c975bf3	0.018476462
186	0xbf09057c	-0.53523993
187	0xbe5e9186	-0.217352
188	0x3df76734	0.12080231
189	0xbe518f63	-0.20464854
190	0x3d200423	0.039066445
191	0xbe3575ec	-0.17720765
192	0xbe202e8c	-0.15642756
193	0xbd01d1cb	-0.031694215
194	0xbd117827	-0.035514977
195	0x3cb6180c	0.022228263
196	0xbd9e13b2	-0.077186
197	0xbd506f06	-0.05088713
198	0x3d12f3e2	0.035877116
199	0xbe417dce	-0.18895647
200	0xbe1ac9ec	-0.1511609
201	0xbd8e1262	-0.069371
202	0xbd8ed2b5	-0.06973783
203	0x3d079d6a	0.033109106
204	0x3cb2613e	0.021774884
205	0x3da7f028	0.08200103
206	0x3d1fd9ec	0.039026186
207	0xbdd602c4	-0.10449746
208	0x3cd21112	0.025642905
209	0x3da42ff4	0.08016959
210	0x3d73b3c2	0.059497602
211	0x3da2125f	0.0791366
212	0xbd5939ee	-0.05303376
213	0xbce4fea0	-0.027953446
214	0x3e23d5ef	0.15999578
215	0xbe72d04e	-0.23712274
216	0x3d9e8989	0.077410765
217	0xbda23034	-0.0791935
218	0xbe3f1299	-0.18659438
219	0xbc8ab655	-0.016932646
220	0xbd4204d6	-0.047367893
221	0xbda8b63c	-0.082378834
222	0x3d070e97	0.0329729
223	0xbc479b4c	-0.012183022
224	0xbe1af9d4	-0.15134364
225	0x3cb784f4	0.022402264
226	0x3dafea23	0.0858958
227	0xbe086873	-0.13321094
228	0xbc8f1078	-0.017463908
229	0xbd9e815e	-0.077395186
230	0xbd691f7c	-0.05691479
231	0xbd18aa7e	-0.03727197
232	0x3dcf6408	0.10126501
233	0x3de3c442	0.111214176
234	0xbe166a4a	-0.14688984
235	0x3d482f52	0.048873253
236	0xbdaa58de	-0.08317731
237	0x3d9e09bc	0.077167004
238	0x3e035d98	0.12828672
239	0xbdafe03f	-0.085876934
240	0xbe11fb0e	-0.14255926
241	0xbc175b63	-0.009238097
242	0x3d013ab0	0.03155011
243	0x3df731fc	0.12070081
244	0xbc690780	-0.01422298
245	0xbe2fd162	-0.17169717
246	0x3d0cbcd2	0.03435976
247	0x3df6f546	0.12058501
248	0xbde63e0f	-0.112423055
249	0x3dc0e29c	0.09418222
250	0xbd812214	-0.06305328
251	0x3e1ef095	0.15521462
252	0x3e07e93d	0.13272567
253	0x3de08127	0.10962134
254	0x3d86976b	0.065718494
255	0xbd0a99f0	-0.033838212

net.9.bias f4 [5]
0	0xbd316d7d	-0.043317307
1	0x3e5ee9de	0.21768901
2	0xbdcf83d8	-0.10132569
3	0xbcb4d332	-0.022073362
4	0xbe42a528	-0.19008315
