outputs/advgan/discriminator.pt (torch, 179937 bytes, 7 tensors)

net.0.weight f4 [256, 10]
0	0x3dfe5f2d	0.12420497
1	0x3ea1cd41	0.3160191
2	0x3e325c6e	0.17418072
3	0x3e7ce815	0.24697907
4	0xbe1d6e30	-0.15374064
5	0x3dc1ca1c	0.094623774
6	0xbdd4e5c4	-0.10395387
7	0xbc65f853	-0.014036256
8	0x3e56af3e	0.20965287
9	0xbe8bee71	-0.27330354
10	0xbe69fdfa	-0.2285079
11	0x3e78ebf4	0.24308759
12	0x3e42a83d	0.1900949
13	0x3ea456fa	0.32097608
14	0x3eaa86b3	0.33305892
15	0x3dd69f68	0.10479623
16	0x3db98616	0.09058778
17	0x3d94bf87	0.072630934
18	0xbe896c88	-0.26840615
19	0xbeab7608	-0.33488488
20	0x3e8052f3	0.25063285
21	0xbe756b82	-0.23966792
22	0x3e6c072b	0.2304961
23	0x3e4dc89c	0.20096058
24	0x3de88808	0.11354071
25	0xbe9dcefe	-0.30821985
26	0xbe9c44f6	-0.30521363
27	0xbdcf5485	-0.10123543
28	0xbe5ba83d	-0.21450897
29	0xbea17d8c	-0.31541097
30	0x3db34b6e	0.087546214
31	0xbe01de84	-0.12682539
32	0x3e9f91b4	0.3116585
33	0x3c8e41f1	0.017365428
34	0xbdb370b7	-0.08761733
35	0x3c7d9328	0.015476979
36	0x3e098905	0.13431175
37	0xbe3cdd39	-0.18443765
38	0xbe2b7ccc	-0.16746825
39	0x3e60f658	0.21968973
40	0xbe71b895	-0.23605569
41	0xbe0dcc97	-0.13847576
42	0x3d18a28b	0.037264388
43	0xbe38a58e	-0.18031904
44	0x3e559360	0.20857
45	0xbdceb37f	-0.1009283
46	0x3e57363a	0.2101678
47	0x3e582340	0.21107197
48	0xbd80f24a	-0.06296213
49	0x3e0f4725	0.13991983
50	0x3e32d7bf	0.17465113
51	0x3e1305a4	0.1435762
52	0xbd3c8254	-0.046022728
53	0xbea1118c	-0.314587
54	0xbdc3ec5e	-0.09566568
55	0x3e169f01	0.14709093
56	0xbdbfbce6	-0.093622014
57	0xbdd719ce	-0.10502969
58	0x3e0af40b	0.13569658
59	0x3e654ee0	0.2239337
60	0xbc9c7def	-0.019103019
61	0xbe9ed9bb	-0.3102549
62	0xbea341de	-0.3188619
63	0xbdad7da4	-0.0847123
64	0x3e8896ed	0.26677647
65	0xbdaad691	-0.083417065
66	0x3d76a93b	0.060219985
67	0x3e9361c8	0.2878554
68	0x3e854e36	0.26036233
69	0x3e669917	0.22519337
70	0x3e451c3e	0.19249055
71	0xbc02fec4	-0.007995311
72	0x3d1d7867	0.038444903
73	0x3e61e61c	0.22060436
74	0x3e99be5c	0.30028045
75	0xbe7d82d6	-0.24756941
76	0x3e0f4353	0.13990526
77	0xbe91e644	-0.2849599
78	0xbea557dd	-0.32293597
79	0x3d52985e	0.05141484
80	0xbe780467	-0.2422043
81	0xbdd46028	-0.10369903
82	0x3e790580	0.24318504
83	0x3d93a574	0.07209292
84	0x3e4dae8c	0.20086116
85	0x3d9500ea	0.07275565
86	0x3e9024d4	0.28153098
87	0xba7f0f6f	-0.0009729778
88	0x3e830e7b	0.25596985
89	0x3d37220b	0.0447102
90	0xbcf7f786	-0.030269396
91	0x3e983161	0.29725173
92	0x3e233d71	0.15941407
93	0xbdf6e496	-0.12055318
94	0xbeb215f2	-0.34782368
95	0x3e3f5c22	0.1868749
96	0x3e91ee59	0.28502157
97	0xbdd5e92d	-0.104448654
98	0xbe3e93aa	-0.18611017
99	0xbe8a6e85	-0.27037445
100	0x3d840e61	0.06448055
101	0xbc868b2e	-0.016423788
102	0x3e8ec817	0.2788703
103	0xbd20da34	-0.039270595
104	0xbe0e256a	-0.1388146
105	0xbd97cb83	-0.07411864
106	0x3e8beae3	0.27327642
107	0xbe45d030	-0.19317698
108	0x3ea0b7a4	0.31390107
109	0x3e60a806	0.21939096
110	0xbe64ab4b	-0.22330968
111	0x3c951cb0	0.018202156
112	0xbea88c51	-0.32919553
113	0xbe1264de	-0.1429629
114	0x3e6e0955	0.23245747
115	0xbdc17d06	-0.094476745
116	0x3e6fa356	0.23402151
117	0x3e6711cf	0.22565387
118	0xbe7846a8	-0.24245703
119	0xbe85a3a5	-0.26101413
120	0x3d798030	0.060913265
121	0x3e57bfc7	0.21069251
122	0x3e88c04b	0.26709208
123	0x3e274f6e	0.16338894
124	0x3e5d1f12	0.21593884
125	0xbe4dd81d	-0.20101972
126	0xbe295b1a	-0.16538659
127	0xbe3e3e68	-0.18578494
128	0xbe442f46	-0.19158658
129	0x3c138b95	0.009005447
130	0x3df0f000	0.11764526
131	0xbe10342e	-0.14082405
132	0xbe7f063f	-0.24904726
133	0xbe263b5e	-0.16233584
134	0x3e855e54	0.2604853
135	0xbd9d419a	-0.07678528
136	0x3e783457	0.24238716
137	0xbe19e7ea	-0.15029874
138	0xbc98b628	-0.018641546
139	0xbd971229	-0.07376511
140	0xbe84042b	-0.2578443
141	0x3e2ec289	0.17066397
142	0x3e4038ad	0.1877162
143	0x3d41cce6	0.047314547
144	0xbe5ae457	-0.21376167
145	0x3e6d5ef7	0.23180757
146	0xbe70b8bb	-0.23507969
147	0x3e8d2407	0.2756655
148	0x3de1d3bb	0.110267125
149	0x3dc0faf7	0.09422868
150	0x3e9c86cc	0.30571592
151	0xbdbb6bb5	-0.09151403
152	0x3e9a9670	0.301929
153	0xbe981418	-0.2970283
154	0x3dc557b8	0.09635872
155	0x3db517ae	0.08842407
156	0xbcb1dbf0	-0.02171132
157	0xbe4f3ef4	-0.20238858
158	0x3ab90cd6	0.0014118205
159	0xbe8d1673	-0.2755619
160	0x3e1064d3	0.14100961
161	0xbe4f395a	-0.20236722
162	0xbe36049e	-0.17775199
163	0x3e8d8608	0.2764132
164	0x3ea56f3e	0.32311434
165	0x3e87f919	0.26557234
166	0xbdd3054b	-0.10303744
167	0xbe94f4de	-0.2909307
168	0xbd97b5e7	-0.07407742
169	0xbda3320e	-0.079685315
170	0x3e4554a3	0.19270568
171	0xbde2ecfd	-0.11080358
172	0x3de64380	0.11243343
173	0xbe951c72	-0.29123265
174	0xbe2e9d39	-0.17052163
175	0xbe897ca5	-0.2685291
176	0x3e442eed	0.19158526
177	0x3b2c88ea	0.0026326724
178	0x3e505c4c	0.20347708
179	0x3ce27e0b	0.027647993
180	0xbcdc9b8f	-0.026929645
181	0xbbc17029	-0.005903263
182	0x3e660789	0.22463812
183	0xbeae5143	-0.34046373
184	0x3d83aab2	0.06429042
185	0x3d971a9b	0.073781215
186	0x3e9a81da	0.30177194
187	0x3e7b5f48	0.24548066
188	0x3c9e6b1f	0.019338189
189	0xbb4bbd93	-0.0031088337
190	0x3e138fc5	0.14410312
191	0x3e824055	0.25439706
192	0x3df05468	0.11734849
193	0x3d03729c	0.032091722
194	0x3e349c49	0.17637743
195	0x3e47f058	0.19525278
196	0x3cc3f45c	0.02392023
197	0x3e89b3f3	0.26895103
198	0x3d98efab	0.07467588
199	0x3e1dd007	0.15411387
200	0xbe841e65	-0.2580444
201	0xbcbfa2a1	-0.023392977
202	0x3e93a075	0.28833356
203	0xbe9c3503	-0.30509195
204	0xbe71767c	-0.23580354
205	0xbe7ebb0f	-0.24876045
206	0xbe3139c3	-0.1730719
207	0x3e9d3b47	0.30709288
208	0xbe1d1b6f	-0.15342496
209	0xbea5d5c2	-0.32389647
210	0xbe1d5459	-0.15364207
211	0xbdd1f9b1	-0.10252703
212	0x3dafc95f	0.0858333
213	0x3db5109e	0.0884106
214	0xbe33a925	-0.17544992
215	0x3dbb799d	0.09154055
216	0xbe172f62	-0.14764169
217	0x3e547a37	0.20749746
218	0xbe9eb595	-0.3099791
219	0xbcbc8f8a	-0.023017664
220	0xbd0ed3a9	-0.034869824
221	0xbe6cc87c	-0.23123354
222	0x3e88d195	0.26722398
223	0x3da55468	0.0807274
224	0x3ea50eb1	0.3223777
225	0xbe6fc8b1	-0.23416401
226	0xbc9eb2ad	-0.019372309
227	0xbe8fe0a1	-0.28101066
228	0x3d444a7c	0.047922596
229	0x3e244841	0.16043188
230	0x3e8f9d7e	0.28049845
231	0x3d8d96a8	0.06913501
232	0xbd99268f	-0.074780576
233	0xbd125b0e	-0.035731368
234	0x3e95a276	0.2922551
235	0xbe44b79b	-0.19210665
236	0x3d129aaa	0.03579203
237	0x3eb03940	0.34418678
238	0xbe9d3d6f	-0.30710933
239	0x3ea1e75d	0.3162183
240	0xbe816683	-0.25273523
241	0x3dc9e6b8	0.09858459
242	0xbda9531b	-0.08267804
243	0x3e27f3ac	0.16401547
244	0x3e99bdc2	0.30027586
245	0x3de29981	0.11064435
246	0xbe6f78c4	-0.23385912
247	0x3dba1ab7	0.09087127
248	0x3e726885	0.23672684
249	0xbda2f96d	-0.079577304
250	0xbe3f3c31	-0.18675305
251	0xbde74544	-0.11292508
252	0xbdd3fbcb	-0.1035076
253	0x3eb56ba4	0.35433686
254	0x3e08b008	0.133484
255	0xbde4919a	-0.11160584

net.0.bias f4 [256]
0	0x3e0ab918	0.1354717
1	0xbd815f64	-0.063170224
2	0x3e9e8ad6	0.30965298
3	0x3dc75b36	0.09734194
4	0xbe92eabf	-0.28694722
5	0x3e404925	0.18777902
6	0x3e902793	0.28155193
7	0x3ea81494	0.328282
8	0xbe819b47	-0.2531378
9	0x3eae2e42	0.34019667
10	0xbe9c9e08	-0.30589318
11	0xbe6415fb	-0.2227401
12	0x3d198a3e	0.037485354
13	0x3eac62d3	0.33669147
14	0xbded9244	-0.116001636
15	0x3eb653a7	0.35610697
16	0x3d3ed824	0.046592847
17	0x3eb386f9	0.35063913
18	0xbd9ee3b8	-0.07758278
19	0xbe871e5f	-0.2639036
20	0x3de684dc	0.1125581
21	0x3dbfa398	0.09357375
22	0x3e56e8be	0.20987222
23	0x3dc25097	0.094880275
24	0x3e8f4b73	0.2798725
25	0xbe6f2788	-0.23354924
26	0x3e8fd10c	0.28089178
27	0x3e527edd	0.20556207
28	0x3cfba9eb	0.030720672
29	0xbe056c64	-0.13029629
30	0xbe88993a	-0.26679403
31	0x3d86be4d	0.06579266
32	0xbde7058e	-0.11280356
33	0xbe82eec5	-0.25572792
34	0x3db42604	0.087963134
35	0xbd3f5c25	-0.046718735
36	0x3cde96df	0.02717155
37	0x3e3f125e	0.1865935
38	0x3e0cd662	0.13753656
39	0xbd4cb31e	-0.049975507
40	0xbd397702	-0.04527951
41	0xbe466798	-0.19375455
42	0x3e3e5575	0.18587287
43	0x3d5c85b6	0.053838454
44	0x3e7fdcd4	0.24986583
45	0x3e79581c	0.24350017
46	0xbe42e7ec	-0.19033784
47	0xbd4b5a9d	-0.049646962
48	0xbe4d22f1	-0.2003286
49	0xbea656af	-0.3248801
50	0x3dca7359	0.09885282
51	0x3e2e5cd1	0.17027594
52	0x3e2faeda	0.17156544
53	0x3e8114c1	0.25211146
54	0x3e7b3c62	0.24534753
55	0xbe8d4843	-0.27594194
56	0xbeb5637e	-0.3542747
57	0x3d339488	0.043842822
58	0xbc182f15	-0.009288569
59	0xbe9051ea	-0.28187495
60	0x3cd018a3	0.025402373
61	0xbe874e27	-0.26426813
62	0x3e468eec	0.19390458
63	0x3e8ab9a6	0.27094764
64	0x3e2d283e	0.16909882
65	0xbe8ff9e1	-0.2812033
66	0x3eaf395b	0.34223446
67	0x3d39a422	0.045322545
68	0xbe57dfde	-0.21081492
69	0x3e2bca0e	0.16776296
70	0x3ea078bf	0.31342122
71	0xbe61084a	-0.21975818
72	0x3e3298f3	0.17441158
73	0xbeafcaa0	-0.34334278
74	0x3e4257cb	0.18978803
75	0x3d377a8b	0.0447946
76	0xbdc9263f	-0.09821748
77	0xbc891974	-0.01673577
78	0x3ebab03c	0.3646258
79	0x3ea0db3b	0.3141726
80	0xbe6fa046	-0.23400983
81	0xbe9fc67c	-0.3120612
82	0xbeab0e25	-0.3340923
83	0x3d3d9a52	0.04628975
84	0x3e7441f9	0.23853292
85	0xbdc1bf3e	-0.09460305
86	0x3e5cec2e	0.2157447
87	0x3d2e999e	0.04262697
88	0xbe013f65	-0.1262184
89	0x3c976f03	0.018485552
90	0xbd3c5d7a	-0.045987584
91	0xbe8d5a71	-0.27608064
92	0x3cea0673	0.028567528
93	0xbda93cb7	-0.082635336
94	0xbe19460b	-0.14968126
95	0x3ea9eab6	0.33186883
96	0xbe92977f	-0.28631207
97	0x3bb8110e	0.0056172675
98	0x3e91a7ff	0.28448483
99	0xbe91dc3a	-0.28488332
100	0xbdb8bd3b	-0.09020468
101	0xbd2c7e68	-0.042112738
102	0xb9489fa2	-0.00019132954
103	0x3e849785	0.2589685
104	0x3e02d43f	0.12776278
105	0xbe8e0f74	-0.27746165
106	0x3e0afd2b	0.13573138
107	0xbe8b66c3	-0.27226838
108	0x3d5a99a0	0.053369164
109	0x3e9a66d3	0.30156574
110	0x3e0fb22d	0.14032812
111	0x3bf4708c	0.0074597057
112	0x3e4961e5	0.1966625
113	0x3c7cdcb5	0.01543348
114	0xbdc0bc39	-0.094109006
115	0x3dcf1a70	0.101124644
116	0xbe260a99	-0.1621498
117	0x3c6edf59	0.014579617
118	0xbd0b5573	-0.034017038
119	0xbe3d8e34	-0.18511277
120	0x3d9e8e67	0.07742005
121	0xbe251e25	-0.1612478
122	0xbe47a690	-0.19497132
123	0xbe87f759	-0.265559
124	0xbe8e0cf9	-0.27744272
125	0xbd599658	-0.053121895
126	0x3e922479	0.2854345
127	0x3cdc1454	0.026865162
128	0x3d47cac8	0.04877737
129	0xbe0245a0	-0.12721872
130	0xbe9a8567	-0.30179903
131	0x3e2958e6	0.16537818
132	0x3dde8179	0.10864539
133	0xbe154a9f	-0.14579247
134	0x3e8e78c1	0.27826503
135	0xbc86ea48	-0.016469136
136	0xbcf6e7f7	-0.030139906
137	0x3d6e2eac	0.05814998
138	0xbe2ed0a3	-0.17071776
139	0xbdd89a29	-0.10576279
140	0x3e1dd0b4	0.15411645
141	0xbe82082f	-0.2539687
142	0x3eaf8b7b	0.34286103
143	0x3e3a0c3e	0.18168733
144	0xbe3916d6	-0.18075117
145	0x3e5d9542	0.21638969
146	0x3cc96b28	0.024587229
147	0x3eaa7c29	0.33297852
148	0x3ccb425c	0.024811916
149	0x3e9acf97	0.30236503
150	0xbe1dfa50	-0.15427518
151	0xbeafdcd2	-0.3434816
152	0x3eb1f0d3	0.34754047
153	0x3ec2917a	0.38001615
154	0xbea0ae4b	-0.31382975
155	0x3d5ddd6e	0.05416625
156	0x3e5ebd1e	0.2175183
157	0x3dc76332	0.09735717
158	0x3dd02995	0.10164181
159	0x3d914bc1	0.07094527
160	0x3dcd97e2	0.10038735
161	0xbe1e1a82	-0.154398
162	0xbdd67289	-0.104710646
163	0x3d1d6516	0.03842648
164	0xbe3cc2a4	-0.18433625
165	0x3d0bb179	0.034104798
166	0xbe68db6a	-0.2273995
167	0x3dfd91ab	0.123812996
168	0x3ebb0ec5	0.36534706
169	0xbb3f62c5	-0.0029203158
170	0xbe4258c8	-0.1897918
171	0xbc8ab937	-0.01693402
172	0xbd2c8d5d	-0.042127002
173	0x3eaed49b	0.3414658
174	0x3eae7a7e	0.3407783
175	0x3e92ebf0	0.2869563
176	0xbdf0a4a7	-0.11750155
177	0x3bc340f8	0.0059586726
178	0xbea58155	-0.32325235
179	0xbe1e5022	-0.15460256
180	0x3ebdf5fa	0.37101728
181	0x3e675d93	0.2259429
182	0xbeb7b999	-0.35883787
183	0xbd8d96ed	-0.069135524
184	0xbe48c627	-0.19606839
185	0x3e165b4d	0.14683266
186	0x3e201358	0.15632379
187	0xbc9d6c5d	-0.01921671
188	0x3e42d715	0.1902736
189	0x3de84882	0.11341955
190	0xbe4f240e	-0.20228598
191	0xbe08b211	-0.13349177
192	0x3d424de6	0.04743757
193	0xbe841533	-0.25797424
194	0x3e905f98	0.28197932
195	0x3e77ab76	0.24186501
196	0x3e055aac	0.1302287
197	0x3ea9a278	0.33131766
198	0xbd40c6df	-0.04706466
199	0xbe623da8	-0.22093832
200	0x3eb16f5b	0.3465527
201	0x3dea1f21	0.114317186
202	0xbd528020	-0.05139172
203	0x3db8bd6b	0.090205036
204	0x3e9860f6	0.29761475
205	0xbe5123a5	-0.20423754
206	0x3e1bb64f	0.15206264
207	0xbdfa2dc6	-0.12215762
208	0x3d44ddae	0.048062973
209	0xbe822039	-0.2541521
210	0x3ec2f33c	0.38076198
211	0xbea15e94	-0.3151747
212	0x3d79fa7e	0.061029904
213	0xbe3740a0	-0.17895746
214	0x3eb2c2b2	0.34914166
215	0x3d9209db	0.07130786
216	0xbd491eac	-0.049101517
217	0x3e496914	0.1966899
218	0x3ea5a3d5	0.32351556
219	0xbe867410	-0.26260424
220	0x3e70820c	0.23487109
221	0xbeb19b08	-0.34688592
222	0x3eaa2834	0.33233798
223	0xbd37a3f8	-0.044834107
224	0x3ddf9598	0.109172046
225	0x3d8afbd1	0.067863114
226	0xbce2581f	-0.02762991
227	0x3ebed5a9	0.37272385
228	0x3e768375	0.24073584
229	0x3dc62583	0.096751235
230	0x3e99dd0d	0.3005146
231	0x3ea18d51	0.31553128
232	0xbe88ad32	-0.26694638
233	0xbde75d7f	-0.1129713
234	0x3e8c185c	0.27362335
235	0x3d439459	0.047748897
236	0xbeafbc25	-0.3432323
237	0x3ea8c115	0.3295981
238	0xbe7cea87	-0.2469884
239	0x3e271547	0.1631671
240	0x3e02502d	0.12725897
241	0x3e9ede14	0.31028807
242	0x3e26b621	0.16280414
243	0x3d0535eb	0.032522123
244	0x3e79886a	0.24368444
245	0x3d9a5829	0.075363465
246	0x3e3ceeae	0.18450424
247	0xbdc96a7f	-0.09834766
248	0x3e235540	0.15950489
249	0x3de2ddbc	0.11077449
250	0x3e92313d	0.2855319
251	0xbe9c0e0d	-0.3047947
252	0xbd6d267e	-0.057898037
253	0x3d13026c	0.03589098
254	0xbcd81201	-0.026375772
255	0x3eb2e271	0.34938386

net.2.weight f4 [128, 256]
0	0xbcccb285	-0.024987468
1	0x3db2b316	0.08725564
2	0x3d351500	0.04420948
3	0x3da77f88	0.081786215
4	0x3c899ef2	0.016799424
5	0xbca78fc7	-0.0204543
6	0x3d77e647	0.060522344
7	0xbc05343a	-0.008130128
8	0x3d42f062	0.04759253
9	0xbc9bb64a	-0.01900782
10	0xbd243cc2	-0.040097006
11	0x3d182852	0.037147827
12	0x3d6acf49	0.05732659
13	0x3d31fa68	0.043451697
14	0xbd288515	-0.041142542
15	0xbb4d0f2d	-0.0031289563
16	0xbd138586	-0.03601601
17	0xbb824895	-0.0039759376
18	0x3d4c4b23	0.049876343
19	0xbc9a4af6	-0.018834572
20	0x3bb33192	0.0054685557
21	0x3d932d72	0.071864024
22	0x3c8f6880	0.017505884
23	0x3d428352	0.047488518
24	0xbcfae10e	-0.030624893
25	0x3c915d18	0.017744586
26	0x3d682993	0.056680273
27	0x3b9423a6	0.004520851
28	0x3c580798	0.013185404
29	0x3d9c2141	0.0762353
30	0xbd15b38c	-0.036548182
31	0x3dad3df9	0.08459086
32	0xbc34132d	-0.0109909
33	0xbd0bbfbf	-0.03411841
34	0x3cb9e8eb	0.022694072
35	0xbc77854a	-0.015107462
36	0xbce85e0b	-0.028365156
37	0x3d4d9a6b	0.050196093
38	0x3d3fa972	0.046792455
39	0xbcc90629	-0.02453907
40	0x3cce1a39	0.025158988
41	0xbc87bbab	-0.01656898
42	0x3cfee23a	0.031113733
43	0x3d1fdc2b	0.039028328
44	0x3aef6adc	0.00182661
45	0x3d4acb95	0.049510557
46	0xbc622688	-0.013803132
47	0x3d853501	0.0650425
48	0x3d18333f	0.037158247
49	0x3ca0eb17	0.01964335
50	0xbc49ed08	-0.012324579
51	0x3d14cbbb	0.036327105
52	0xbca121bd	-0.019669408
53	0x3d28592a	0.04110066
54	0x3d8cb845	0.06871084
55	0xbcb20e55	-0.02173535
56	0xbbaa37e1	-0.0051946496
57	0x3d3566b8	0.044287413
58	0x3d813ce1	0.0631044
59	0xbd6c7511	-0.05772883
60	0xbc316a1e	-0.010828523
61	0xbb82f7dd	-0.0039968328
62	0xbc4f95a8	-0.012669958
63	0x3da70eef	0.08157145
64	0x3c8a1c7f	0.016859291
65	0xbd110305	-0.03540327
66	0x3d89848b	0.06714734
67	0xba692bc2	-0.0008894765
68	0x3cf56a46	0.029957902
69	0x3cae30a6	0.021263432
70	0x3d4f886e	0.05066722
71	0xbace53f8	-0.0015741577
72	0x3d17841f	0.036991235
73	0xbc89bc8e	-0.016813543
74	0x3c426537	0.011864952
75	0x3da8ba9a	0.082387164
76	0xbb99734a	-0.004682933
77	0xbc98c2e0	-0.018647611
78	0x3db0bff9	0.08630366
79	0x3d862b09	0.06551177
80	0x3d4fe901	0.05075932
81	0xbd219c07	-0.03945544
82	0x3d247a75	0.040155847
83	0x3cdc8a24	0.02692134
84	0x3cf619f3	0.03004167
85	0xbd03ab5c	-0.032145843
86	0x3d46c87d	0.048531044
87	0xbd0106bf	-0.031500574
88	0xbc1abf58	-0.009445034
89	0xbc60152c	-0.013676923
90	0x3d44b596	0.048024736
91	0xbd4fc119	-0.05072126
92	0x3d8a61ea	0.06756957
93	0xbbaec689	-0.005333726
94	0x3d24121d	0.040056337
95	0x3cd74a7b	0.026280632
96	0xbd5e4569	-0.054265413
97	0x3d035a4d	0.03206854
98	0x3d4b7b88	0.049678355
99	0x3c425b73	0.0118626235
100	0x3d773e3e	0.060362093
101	0xbd0de610	-0.034643233
102	0x3d7ac55b	0.06122337
103	0x3d95a38f	0.07306587
104	0x3d9ba357	0.07599514
105	0xbd9c02b6	-0.076177046
106	0x3ba08483	0.004898609
107	0xbcffa31a	-0.031205703
108	0x3c8cac1a	0.017171908
109	0x3d5a89c3	0.053354036
110	0x3d5c2ec5	0.05375554
111	0xbc8c44c7	-0.01712264
112	0x3c960db7	0.018317087
113	0xbcf51ae7	-0.029920055
114	0x3d562ea2	0.052290566
115	0xbcbef56e	-0.02331039
116	0x3cbfe8ee	0.0234265
117	0xbcb756d4	-0.02238027
118	0xbce67102	-0.028130058
119	0xbcf485c4	-0.02984894
120	0xbb4c1192	-0.0031138402
121	0x3d87b69a	0.06626625
122	0x3d368ea6	0.044569634
123	0x3ca23d9b	0.019804766
124	0x3c329992	0.010900872
125	0xbc97ee74	-0.01854632
126	0xbd00f1e9	-0.031480704
127	0xbbeeec15	-0.0072913268
128	0x3cdc4007	0.026886
129	0x3cb563e1	0.022142353
130	0xbd5a716b	-0.05333082
131	0x3d8c6e45	0.0685697
132	0x3d4643a7	0.048404362
133	0x3c894ae0	0.016759336
134	0x3d148a0a	0.036264457
135	0x3d912544	0.07087186
136	0xbb975419	-0.0046181795
137	0xbc87f600	-0.016596794
138	0x3d1faa7b	0.038980942
139	0xbc09891f	-0.008394509
140	0xbc9146dc	-0.017733984
141	0xbd2c4a03	-0.04206277
142	0xbcc9860d	-0.024600053
143	0x3da553d3	0.08072629
144	0x3d8de48e	0.06928359
145	0x3d02e477	0.031956162
146	0xbd33e3a7	-0.043918278
147	0x3cba5029	0.022743301
148	0xbc9948d0	-0.018711478
149	0x3cf363d7	0.029710693
150	0x3d961501	0.07328225
151	0x3cd8419d	0.026398474
152	0xbcf8b017	-0.030357404
153	0x3b86d2b9	0.0041144756
154	0x3ca0a2be	0.019608852
155	0x3a0e5a63	0.0005430339
156	0xbce1eef8	-0.02757977
157	0x39a25ae2	0.0003096676
158	0xbc8df7a2	-0.017329995
159	0x3d4ae489	0.049534354
160	0x3da22d7b	0.07918831
161	0x3d52d55c	0.051473007
162	0xbd68134d	-0.05665903
163	0x3d099a20	0.03359425
164	0xbd24fc0e	-0.04027944
165	0x3cfdb1d2	0.03096858
166	0xbca4c30f	-0.020112542
167	0x3d58024a	0.052736558
168	0x3c2bfc61	0.010497184
169	0x3a91494e	0.0011084469
170	0xbcd99135	-0.026558498
171	0xbd18280c	-0.037147567
172	0x3d9104a9	0.07080967
173	0x3c73da29	0.014883556
174	0x3da384dc	0.07984325
175	0x3d8f4647	0.06995826
176	0xbc9bf3d4	-0.019037165
177	0xbcba602e	-0.02275094
178	0xbd6aec4a	-0.05735425
179	0xbb8d6334	-0.0043148044
180	0x3cecee25	0.02892215
181	0x3ad803d9	0.0016480639
182	0xbd9f3e9c	-0.07775614
183	0x3d97907f	0.07400607
184	0xbcca3279	-0.02468227
185	0xbcc892da	-0.024484087
186	0xba7f1390	-0.0009730393
187	0x3bf2169d	0.0073879496
188	0x3cd57e1b	0.026061108
189	0x3ba251af	0.004953585
190	0xbd2a2528	-0.04153934
191	0x3d989a2f	0.07451283
192	0xba2fe6ae	-0.0006710094
193	0xbd6c9dcb	-0.05776767
194	0xbd090da7	-0.033460286
195	0x3d21b3ac	0.03947799
196	0x3d971bb1	0.073783286
197	0xbcc7c76b	-0.024387082
198	0xbcef5c4a	-0.029218812
199	0x3cfc3cc7	0.0307907
200	0x3d4c0c59	0.049816463
201	0x3d52fa1e	0.05150806
202	0xbd14fdde	-0.03637492
203	0xbccae819	-0.024768876
204	0x3cf99692	0.030467305
205	0x3d6fe305	0.058566112
206	0x3d99f7c8	0.07517964
207	0xbc252023	-0.010078463
208	0x3ca3cfd3	0.01999656
209	0x3cf1202d	0.029434288
210	0x3d0f7fd5	0.03503402
211	0xbd899b0d	-0.06719027
212	0x3da4c1e3	0.080447935
213	0xbc2af924	-0.010435376
214	0x3d7a222d	0.06106775
215	0xbc5776cd	-0.013150883
216	0x3d020bf2	0.031749673
217	0xbca5e9fb	-0.020253172
218	0x3d91d748	0.0712114
219	0xbd198f4a	-0.037490167
220	0x3ca80577	0.020510418
221	0xbc86437e	-0.016389605
222	0x3c92f35d	0.01793831
223	0xbc94b6a6	-0.0181535
224	0x3d1bf604	0.038076416
225	0x3d8082c9	0.06274945
226	0xbcfcc951	-0.030857714
227	0x3dacb4bf	0.08432912
228	0x3d55afe2	0.052169688
229	0x3d996be5	0.074912824
230	0xbc2dcb20	-0.010607511
231	0x3d42364b	0.04741506
232	0xbd76e0d1	-0.060272995
233	0x3c89ccc2	0.016821269
234	0xbc2d3aec	-0.01057313
235	0x3d84d996	0.06486814
236	0xbbbfe514	-0.0058561657
237	0x3d0ffa8e	0.035151057
238	0x3ceff50a	0.029291648
239	0xbd0bd403	-0.034137737
240	0xbc20653e	-0.009789763
241	0x3d669dc2	0.056302793
242	0x3da8a076	0.082337305
243	0x3d52f6d6	0.051504932
244	0xbc9b46ab	-0.018954596
245	0xbd0b526b	-0.034014147
246	0x3ce25924	0.027630396
247	0xbd3e7f95	-0.04650839
248	0xbc4d28ea	-0.012521962
249	0x3c2a0b22	0.010378631
250	0xbb392dbd	-0.0028256022
251	0xbbae068c	-0.005310839
252	0x3d34be9e	0.0441271
253	0x3d81be58	0.06335133
254	0x3b9009e2	0.0043957094
255	0xbcfda1ab	-0.030960878

net.2.bias f4 [128]
0	0x3b9ce08c	0.0047875103
1	0xbd2c1a19	-0.042017076
2	0x3dccf0ed	0.100068904
3	0xbbb42975	-0.005498106
4	0x3da66970	0.08125579
5	0x3d1a616c	0.037690565
6	0x3cf5404a	0.029937882
7	0xbd74047c	-0.05957459
8	0x3b5f3da7	0.0034063847
9	0xbd82e68f	-0.06391632
10	0x3d0fa4e0	0.035069346
11	0x3da2a429	0.07941467
12	0x3c8b01da	0.016968656
13	0x3dcad53e	0.09903954
14	0xbca83702	-0.020534042
15	0xbd8779bd	-0.066150166
16	0x3d9e4644	0.07728246
17	0x3d4f577b	0.050620537
18	0x3d920518	0.07129878
19	0x3d9bd563	0.0760906
20	0x3c9a365f	0.018824754
21	0xbbf412c8	-0.007448528
22	0x3c871c24	0.01649291
23	0xbc509bc6	-0.012732452
24	0x3dafbce0	0.08580947
25	0x3d7525e7	0.0598506
26	0xbd91692e	-0.071001396
27	0x3d4751b0	0.048661888
28	0x3d07c853	0.03315003
29	0x3d7a15a9	0.061055813
30	0x3cfec078	0.031097636
31	0xbba2f3dc	-0.004972918
32	0x3c8227d7	0.015888138
33	0xbd80c92c	-0.062883705
34	0x3d1e6c34	0.03867741
35	0xbd9d64b8	-0.07685226
36	0x3d8d09ca	0.06886633
37	0x3a90c711	0.0011045655
38	0xbd2d0e43	-0.04224993
39	0x3d142736	0.036170207
40	0xbb39a758	-0.0028328504
41	0xbda10884	-0.07862952
42	0xbd7de939	-0.061989997
43	0xbd823304	-0.06357387
44	0x3d9536bb	0.0728583
45	0x3cdba0bb	0.02681004
46	0x3cea5555	0.028605143
47	0x3dd795de	0.10526632
48	0x3cffa9e5	0.031208942
49	0x3ccbe9cc	0.024891756
50	0xbd4bc08a	-0.049744166
51	0x3da0e8e9	0.07856924
52	0xbc8958f4	-0.016766049
53	0x3b8d2229	0.0043070507
54	0x3d6a8f5a	0.057265617
55	0x3d31733e	0.043322794
56	0xbd850f6e	-0.064970836
57	0x3d9bdc35	0.076103605
58	0xbcd233e8	-0.025659516
59	0x3cb90d2f	0.022589294
60	0x3b6ce10b	0.0036144878
61	0xbcf47668	-0.029841617
62	0x3db206ea	0.08692725
63	0xbdb3ea43	-0.08784916
64	0x3da632fa	0.08115192
65	0x3c85a3b2	0.016313408
66	0xbd9011b7	-0.07034629
67	0x3c51f9f1	0.012815938
68	0x3ca67f18	0.020324275
69	0xbdaced28	-0.084436715
70	0xbc512689	-0.012765535
71	0x3ca4a0e6	0.020096254
72	0x3d2b747d	0.04185914
73	0x3c862813	0.01637653
74	0xbd9e1e3b	-0.0772061
75	0xbc0b7d5e	-0.008513777
76	0x3d915b84	0.07097533
77	0xbd87b02b	-0.06625398
78	0x3d14840b	0.03625874
79	0x3d86a9c8	0.06575352
80	0x3ad08264	0.0015908
81	0xbd2e625e	-0.04257428
82	0xbd426312	-0.047457762
83	0x3d1e45ab	0.03864066
84	0x3c60f660	0.013730615
85	0x3d5f09fd	0.054452885
86	0x3cf5aab9	0.029988633
87	0x3d9ca60f	0.07648861
88	0x3d48c237	0.049013343
89	0x3ca793b2	0.020456169
90	0x3d3befda	0.045883037
91	0xbc3a92e0	-0.011387557
92	0x3cfe6541	0.031054141
93	0xbc866c3f	-0.016409038
94	0x3dbf5d49	0.093439646
95	0x3dc91743	0.0981889
96	0xbc370df3	-0.011172759
97	0xbd0ed04c	-0.034866616
98	0x3ca898ad	0.020580614
99	0x3dbc3873	0.09190454
100	0x3a5f14a5	0.0008509851
101	0xbd054ee1	-0.032545928
102	0x3cda0fc2	0.026618842
103	0x3d0d5cc6	0.034512304
104	0xbcdf570d	-0.027263189
105	0xbd806420	-0.06269097
106	0xbd8dbdc0	-0.069209576
107	0x3c2cfa64	0.010557745
108	0x3dab8fc1	0.08377028
109	0x3d53e2c0	0.051729918
110	0x3cb80e45	0.022467742
111	0x3c4bd1cb	0.012440155
112	0x3d7c9bb4	0.061671928
113	0xbc50024b	-0.012695859
114	0x3d9f3f2a	0.077757195
115	0x3dc02b73	0.09383287
116	0x3dcbacee	0.09945093
117	0xbbd198f7	-0.0063964087
118	0xbadfabe3	-0.0017064776
119	0x3c3177c7	0.01083178
120	0xbc8ac7a5	-0.016940901
121	0x3d2b27da	0.041786052
122	0x3c4da47a	0.012551421
123	0xbd66b096	-0.05632075
124	0xbd64c859	-0.05585513
125	0x3d987082	0.07443334
126	0xba09d1d2	-0.0005257401
127	0x3d3c74c3	0.04600979

net.4.weight f4 [64, 128]
0	0xbd86a33d	-0.06574104
1	0x3da61e4e	0.08111249
2	0xbd34c7a5	-0.04413571
3	0x3d35b2e9	0.044360075
4	0x3c01202d	0.007881206
5	0x3da4c485	0.080452956
6	0xbdcc8433	-0.099861525
7	0x3d922bd1	0.071372636
8	0xbd2c84a0	-0.04211867
9	0x3d439ed7	0.047758903
10	0xbd611968	-0.05495587
11	0xbcb38db1	-0.02191815
12	0x3ba6e5e4	0.005093323
13	0xbd1ea36d	-0.038730074
14	0x3df1edd2	0.11812939
15	0x3d880080	0.0664072
16	0xbd867d4b	-0.065668665
17	0xbdaeaeb3	-0.08529415
18	0xbbe62043	-0.007022889
19	0xbcd4b89b	-0.025966933
20	0x3c1b02cd	0.009461117
21	0xbd792ab1	-0.06083173
22	0x3c163c40	0.009169638
23	0x3d9414ef	0.07230555
24	0xbc937ab5	-0.018002847
25	0xbddbac74	-0.10726252
26	0x3cfcae69	0.030844884
27	0xbd8657fa	-0.06559749
28	0xbdd9b13e	-0.106295094
29	0xbd2f529c	-0.04280339
30	0xbcbd1917	-0.023083253
31	0x3e043a6f	0.12912916
32	0x3c8e2dd5	0.017355839
33	0xbbe9e348	-0.0071376897
34	0xbe174296	-0.14771494
35	0x3d80cd84	0.06289199
36	0x3d32b5ef	0.043630537
37	0xbdd80295	-0.105473675
38	0x3dc8318f	0.097750776
39	0xbd239ea3	-0.03994621
40	0xbdc60e9a	-0.09670754
41	0x3ca99aec	0.020703755
42	0x3dc115d3	0.09427991
43	0xbc89901e	-0.016792353
44	0xbc84b23a	-0.016198266
45	0x3cff77a8	0.031184986
46	0xbc53df3b	-0.01293164
47	0xbe09bece	-0.13451692
48	0xbcd77961	-0.026302995
49	0xbe04deff	-0.12975691
50	0xbd3aecaa	-0.045635857
51	0x3b11cf6a	0.0022248873
52	0x3d24daa7	0.040247586
53	0x3d568bf9	0.052379582
54	0xbda32b26	-0.07967214
55	0x3d0d19d3	0.034448456
56	0xbc8ea338	-0.017411813
57	0xbd96bcc2	-0.073602214
58	0xbdcb629f	-0.0993092
59	0xbd29993a	-0.041405894
60	0xbd54c773	-0.051948022
61	0xbdee1332	-0.11624755
62	0xbd90530b	-0.07047089
63	0x3dc1c538	0.094614446
64	0xbde2d419	-0.11075611
65	0xbdbf2bbd	-0.09334514
66	0xbd4b2063	-0.049591433
67	0xbd54103f	-0.051773306
68	0x3dbbfd6a	0.09179194
69	0x3c89480f	0.016757993
70	0xbb88b164	-0.0041715372
71	0xbd9e9270	-0.077427745
72	0xbc80bb70	-0.015714377
73	0x3d97f54c	0.074198335
74	0x3de90135	0.11377183
75	0xbd05c5c2	-0.0326593
76	0xbde70ce8	-0.112817585
77	0x3db7b3b9	0.08969826
78	0xbe2ee955	-0.17081197
79	0x3cf06cf3	0.029348826
80	0x3d5ce811	0.053932253
81	0x3da21231	0.07913626
82	0x3ddee699	0.10883827
83	0xbe00083e	-0.12503144
84	0x3d66d485	0.05635502
85	0xbdcba6de	-0.09943937
86	0xbda55379	-0.08072562
87	0xbdbba322	-0.091619745
88	0xbe2beced	-0.16789599
89	0xbd5b645a	-0.0535625
90	0x3d03aab8	0.032145232
91	0xbcc40a66	-0.02393074
92	0x3c9446a5	0.018100092
93	0xbd369e63	-0.044584643
94	0xbdb484c8	-0.088143885
95	0xbd521374	-0.051288083
96	0x39fb7aca	0.00047965936
97	0x3d956615	0.07294861
98	0xbb57ef93	-0.0032949194
99	0xbc97fb0b	-0.018552324
100	0xbd045ab9	-0.032313082
101	0xbd3bddee	-0.045865946
102	0xbdc1a774	-0.09455767
103	0xbcd45e35	-0.025923828
104	0xbd0c55ce	-0.034261517
105	0x3d5c3a5b	0.05376659
106	0x3c472963	0.012155863
107	0x3b0e2c12	0.0021693748
108	0xbdbb3077	-0.09140103
109	0xbd681b36	-0.056666575
110	0xbd275776	-0.040854894
111	0xbdb345a5	-0.08753518
112	0xbd278dbc	-0.040906653
113	0xbe0168ca	-0.1263763
114	0xbccfe030	-0.025375456
115	0xbda25cd4	-0.07927862
116	0x3b240f87	0.002503367
117	0xbcb83e88	-0.022490755
118	0x3d884518	0.066538036
119	0x3cc9cd81	0.024634125
120	0x3c7d26cc	0.015451144
121	0xba77a709	-0.00094471924
122	0xbd86e0e3	-0.065858625
123	0xbd714e9b	-0.058912855
124	0xbd5da647	-0.054113653
125	0xbcf9629e	-0.030442532
126	0x3da7ca21	0.0819285
127	0xbd92ff19	-0.07177562
128	0x3ac2d055	0.0014863113
129	0x3db197b2	0.08671512
130	0xbbfb85b2	-0.00767585
131	0x3d13bffb	0.03607176
132	0xbdacc075	-0.08435146
133	0x3db17605	0.086650886
134	0xbde3c043	-0.111206554
135	0x3d02b2ef	0.031908926
136	0xbccf6368	-0.025315955
137	0x3dd8dc1a	0.10588856
138	0x3c855173	0.01627419
139	0x3d2215e0	0.039571643
140	0x3d254dd0	0.04035741
141	0xbd5ff203	-0.05467416
142	0xbc5ca7c6	-0.013467735
143	0xbda823bd	-0.082099415
144	0xbd0f7dc7	-0.03503206
145	0x3d399521	0.045308236
146	0xbda1cd46	-0.07900481
147	0xbd81c1e6	-0.06335811
148	0xbdb4af13	-0.08822455
149	0xbdf3a18f	-0.11896049
150	0x3d562307	0.0522795
151	0x3d863f48	0.06555039
152	0xbd25f54f	-0.040517148
153	0xbd8598ca	-0.06523283
154	0xbc73b6db	-0.014875139
155	0x3cd21a35	0.025647262
156	0xbd6c68cb	-0.057717126
157	0x3d551c79	0.052029107
158	0x3cb1ab02	0.021687988
159	0xbcd7aca6	-0.026327442
160	0xbd5fbf57	-0.054625835
161	0x3d84b093	0.06478991
162	0xbdc1f206	-0.094699904
163	0x3da59c2a	0.080864266
164	0xbcfd5ae7	-0.030927135
165	0x3d48db01	0.049036983
166	0x3dbbf16a	0.091769055
167	0xbdd8cdce	-0.10586129
168	0xbd05c56d	-0.032658983
169	0xbbbf99db	-0.0058471984
170	0x3d9400ba	0.07226701
171	0x3da6edab	0.081508
172	0x3d3a8806	0.04553988
173	0xbd4e5fa9	-0.050384197
174	0xbdcde061	-0.100525625
175	0xbde1134f	-0.10990011
176	0xbde3ee61	-0.111294515
177	0xbe07bb52	-0.13255051
178	0xbd68f387	-0.05687287
179	0x3d4349e5	0.047677893
180	0xbc4a7e24	-0.012359176
181	0xbd714227	-0.05890098
182	0xbd8dd051	-0.06924499
183	0x38b72f5e	8.734943e-05
184	0x3cf6ee2f	0.030142872
185	0xbd94c02a	-0.07263215
186	0xbdb28c58	-0.08718175
187	0xbd8f62e5	-0.070012845
188	0xbdbcfff4	-0.09228507
189	0x3d262c8a	0.04056982
190	0x3d5b4b7a	0.053538777
191	0xbc0cb0d5	-0.008587082
192	0x3b6ad0f1	0.0035830105
193	0x3ca3668f	0.019946365
194	0xbc906256	-0.017625015
195	0xbc89bf59	-0.016814874
196	0xbcb8bf1f	-0.022552071
197	0x3daa4a63	0.083149694
198	0xbd27f9cc	-0.04100971
199	0x3c43b23a	0.011944348
200	0xbde1f8c7	-0.11033779
201	0x3af62d6b	0.0018781846
202	0x3d0fac44	0.035076395
203	0xbd217f22	-0.039427884
204	0x3d109d3d	0.035306204
205	0xbc56d866	-0.013113117
206	0xbe0dfc69	-0.13865818
207	0x3c06604d	0.008201671
208	0x3d49fcd7	0.049313392
209	0x3de377aa	0.111068085
210	0xbce71c55	-0.028211752
211	0xbdbaa695	-0.09113804
212	0xbda2fc05	-0.07958225
213	0x3af11b15	0.0018394912
214	0xbdcbad27	-0.099451356
215	0xbd3bda9b	-0.045862775
216	0xbd5585b9	-0.05212948
217	0xbd7a9b0e	-0.061183028
218	0x3c7fc59e	0.01561108
219	0xbdef08e7	-0.1167162
220	0xbd8b77cf	-0.06809961
221	0xbcbf0e84	-0.023322351
222	0x3c558446	0.013032025
223	0xbdc5d237	-0.09659236
224	0xbd9e2e7a	-0.077237085
225	0xbd38775c	-0.045035705
226	0xbb0c222d	-0.0021382675
227	0x3d294cb2	0.041332908
228	0x3d95b3df	0.07309698
229	0x3b7cca1e	0.003857262
230	0x3d31c45e	0.04340016
231	0x3d2b3529	0.041798744
232	0xbd4b8525	-0.049687523
233	0x3d5be020	0.05368054
234	0x3d634e43	0.055494558
235	0x3dd4dc7c	0.103936166
236	0xbb8c32b4	-0.004278505
237	0x3d1b9453	0.03798325
238	0xbc21639f	-0.009850412
239	0xbd4a5a59	-0.04940257
240	0xbd446290	-0.04794556
241	0xbc9d9d87	-0.019240154
242	0xbd9be187	-0.07611375
243	0xbcd93772	-0.026515696
244	0xbd81470b	-0.063123785
245	0xbdd182f1	-0.10230053
246	0x3d6f5881	0.058434013
247	0x3cf8f433	0.03038988
248	0x3dc3de2e	0.09563862
249	0xbdb621d9	-0.08893175
250	0x3d49db48	0.04928139
251	0xbd86685e	-0.06562875
252	0xbcdb9865	-0.026806066
253	0x3ca855b2	0.020548675
254	0x3a91e823	0.0011131804
255	0xbbb09545	-0.005388888

net.4.bias f4 [64]
0	0xbd9f4fbc	-0.0777888
1	0xbdd74c86	-0.105126426
2	0x3cb0f84f	0.021602778
3	0xbd69e656	-0.05710443
4	0xbdcc3570	-0.0997113
5	0xbb2b36d9	-0.002612522
6	0xbd948160	-0.07251239
7	0xbd6d830f	-0.057986315
8	0x3d6ac928	0.057320744
9	0x3cb1072e	0.021609869
10	0xbd588c52	-0.052868195
11	0x3d568ef6	0.052382432
12	0x3ddb52ee	0.10709177
13	0xbdd1d8ec	-0.10246453
14	0xbb81ac67	-0.0039573195
15	0xbdcbc858	-0.09950322
16	0xbd032e3f	-0.032026526
17	0xbd903e14	-0.070430905
18	0xbd0522ab	-0.032503765
19	0x3d155856	0.036461197
20	0x3dae6e99	0.085171886
21	0xbd98c4b3	-0.074593924
22	0xbd143e7e	-0.03619241
23	0x3d1a49ee	0.03766816
24	0x3d67639c	0.05649148
25	0x3d237a55	0.039911587
26	0x3c8845ee	0.016634908
27	0xbd2a7251	-0.041612927
28	0xbc72bb03	-0.014815095
29	0x3d4535f0	0.048147142
30	0xbc5aac6e	-0.0133467745
31	0x3d9bd52c	0.07609019
32	0x3d791460	0.060810447
33	0xbaa0f135	-0.0012278917
34	0x3c11f51b	0.008908535
35	0xbcaa13e5	-0.02076144
36	0xbcc14bdd	-0.023595745
37	0xbd355a45	-0.04427554
38	0x3cfeb2e6	0.031091165
39	0x3d65e28f	0.056124266
40	0x3dc4f957	0.0961787
41	0x3b83d77b	0.00402349
42	0xbd4326d5	-0.047644455
43	0xbb2992db	-0.0025874886
44	0x3cf276ab	0.0295976
45	0xbb8c8a91	-0.0042889793
46	0xbc6e16d2	-0.014531808
47	0xbd5f143d	-0.05446266
48	0xbc2f7106	-0.010708099
49	0xbc48e6b6	-0.012262037
50	0xbd8925dc	-0.06696674
51	0xbd2d7b57	-0.042353954
52	0xbc5872fc	-0.013211008
53	0x3dbd0a42	0.09230472
54	0x3d5b0674	0.05347295
55	0x3cda0bc1	0.026616933
56	0x3c7ba827	0.015359915
57	0xbd7320d7	-0.05935749
58	0xbd53bf74	-0.051696256
59	0xbd60bee9	-0.054869566
60	0x3d8c03e9	0.06836683
61	0x3dd4421e	0.10364173
62	0x3db6f03c	0.0893254
63	0x3cfa9d5e	0.030592617

net.6.weight f4 [1, 64]
0	0xbd5fcb54	-0.05463727
1	0xbdab8fd3	-0.08377042
2	0xbd8727b9	-0.06599373
3	0xbdb0b4f4	-0.08628264
4	0xbe5317e6	-0.20614585
5	0xbd909256	-0.07059161
6	0xbdee0c96	-0.11623494
7	0xbe08ba87	-0.13352405
8	0xbda3228e	-0.07965575
9	0xbe1424a4	-0.14467102
10	0xbe160841	-0.14651586
11	0x3e17834f	0.14796184
12	0x3df307d0	0.118667245
13	0xbe2bea0d	-0.16788502
14	0x3e209465	0.15681608
15	0xbe287fc0	-0.16454983
16	0x3deac561	0.11463428
17	0xbdb46cfb	-0.08809849
18	0xbd472e62	-0.04862822
19	0x3d93bada	0.072133735
20	0x3d8291ac	0.06375441
21	0xbdffb67f	-0.1248598
22	0x3de786de	0.11305021
23	0xbc108df6	-0.008822909
24	0x3dce4023	0.10070827
25	0xbd262bbf	-0.040569063
26	0xbe18fdcd	-0.14940567
27	0x3e12e95b	0.1434683
28	0x3e065e16	0.13121828
29	0x3e161403	0.14656071
30	0xbdee83de	-0.116462454
31	0xbdffd0ab	-0.12490972
32	0x3e1b731c	0.1518063
33	0x3e15b093	0.14618139
34	0xbd623d18	-0.055234045
35	0xbd419742	-0.04726339
36	0xbe080819	-0.13284339
37	0x3e1e440c	0.15455645
38	0xbd8cea0e	-0.0688058
39	0xbde476ed	-0.11155496
40	0x3d98c580	0.07459545
41	0x3d98753c	0.07444236
42	0xbda4acf7	-0.08040803
43	0x3e19642d	0.1497962
44	0xbe01010a	-0.12598053
45	0xbdacd5dd	-0.08439229
46	0xbdc5adad	-0.09652267
47	0xbde924f7	-0.113840036
48	0x3e2f7db7	0.171378
49	0x3da69fd0	0.081359506
50	0xbdd40d02	-0.103540435
51	0xbd69ffa8	-0.05712858
52	0xbda8ebc1	-0.082480915
53	0x3df77d77	0.120844774
54	0xbdfe342e	-0.12412296
55	0x3dfd83a0	0.12378621
56	0xbd1b1024	-0.03785719
57	0xbdf68884	-0.12037757
58	0x3dde7f22	0.108640924
59	0xbddc1abb	-0.10747286
60	0xbdc6b987	-0.09703355
61	0x3df08729	0.1174453
62	0x3d911b0a	0.070852354
63	0xbdbe3892	-0.09288134
