outputs/advgan/generator.pt (torch, 182185 bytes, 8 tensors)

net.0.weight f4 [256, 10]
000000 7f 40 32 be 33 9f bb bd 1e 62 47 be 8d 39 9b bc
       -0.17407416 -0.09161224 -0.19471022 -0.01894834
000010 20 31 86 3e 12 88 9b 3d 38 1b 06 be 68 10 90 3e
       0.26209354 0.07594313 -0.1309632 0.28137517
000020 dd f8 a3 bd 47 4d ae 3b 8f a5 8e be a4 47 98 be
       -0.08006451 0.005319271 -0.27860686 -0.29742157
000030 a0 7e ca bd 9d 88 88 bd f5 2a 94 bd ec 68 8a be
       -0.09887433 -0.06666682 -0.07234756 -0.27033174
000040 9a 03 8f be 48 ad a5 3e 01 5b e8 3d 0b 56 4e 3d
       -0.27932435 0.32358766 0.113454826 0.050375026
000050 0d 21 90 3e ef 4f 2f 3e 52 08 ae be 59 24 9a 3e
       0.28150216 0.17120336 -0.33990723 0.30105856
000060 c5 dd 45 3e 99 e0 38 bc 09 78 87 be d3 ab 16 bd
       0.1932288 -0.011284017 -0.26458767 -0.036784958
000070 68 1a 72 be 7c 6a 88 3c 21 b8 9c bd 65 88 42 be
       -0.23642886 0.016652338 -0.07652307 -0.18997343
000080 76 88 a7 be 25 4b 6d bd 8b dc ee 3d f8 27 b2 bd
       -0.327213 -0.05793299 0.11663159 -0.0869903
000090 5f 82 4c 3e 64 c5 ae 3e 80 e8 83 be ef 82 8a 3e
       0.19971608 0.34134972 -0.2576332 0.2705302
0000a0 cb 47 aa 3d c3 3a 2e 3e a8 88 9e 3d ce 8b bd bd
       0.08314475 0.17014603 0.07740909 -0.09255181
0000b0 3a 67 e7 3d 7d e5 6b be 0a 14 ad 3d 2d e7 8f 3d
       0.11298986 -0.23036762 0.08451088 0.07026515
0000c0 2e 19 30 3e 4d 53 be be 9b a2 57 3e a2 3a 7a bd
       0.17197105 -0.37172928 0.21058123 -0.061091073
0000d0 d2 df 88 3e 1d 4b 87 be ff ee 06 be b3 88 9d 3e
       0.2673326 -0.26424494 -0.13177107 0.30768356
0000e0 05 18 53 bd dc f5 b1 bd c0 1d a0 be 6b 53 42 be
       -0.05153658 -0.08689472 -0.31272697 -0.18977134
0000f0 31 01 76 3e b9 ad a4 3e 0c 3f 4f 3e de 40 18 3e
       0.24023892 0.3216379 0.20238894 0.14868495
000100 25 05 6f be 9c 7d 7f be 7c da 24 3d 17 04 2e bd
       -0.23341806 -0.2495026 0.040247425 -0.04248437
000110 9a 3c 8e be bf 79 48 bd 0d db fb 3c 0f ea 96 3e
       -0.2778061 -0.04894423 0.0307441 0.29475448
000120 7a 28 99 b9 2f 75 3f bc df b8 63 be 31 14 6b be
       -0.00029212591 -0.011685654 -0.22238491 -0.22956921
000130 dd b5 9b 3e db 6e 97 be 37 dd 4e 3e ad 0e 0c be
       0.30412188 -0.29576764 0.20201574 -0.13677473
000140 74 d8 ae 3d 91 5f 82 3e 09 e0 86 be 4b ba 6c 3d
       0.08537379 0.25463536 -0.263428 0.05779485
000150 8e ef ad bd 22 ed 38 bd 3a 3e b5 be 59 a9 c9 3c
       -0.08492957 -0.045148022 -0.35399038 0.024616884
000160 d0 be 1b be fb 0b 92 3e 70 5e 56 3e e0 8c 47 be
       -0.15209508 0.28524765 0.20934463 -0.19487333
000170 ee af 4f 3e e5 7a 99 3d 50 75 69 be 92 96 57 3c
       0.20281956 0.074941434 -0.22798657 0.013158457
000180 68 35 91 3e 44 c1 70 3e 4e 5b 9a bd c5 44 37 3e
       0.28361058 0.23511225 -0.07536946 0.17897327
000190 08 30 29 bc 29 a2 5b 3d 58 90 76 bc ff ee 31 be
       -0.010326393 0.053621445 -0.015049063 -0.17376326
0001a0 4c ea 80 3e f8 d9 79 bd 56 2b 9d bc e3 c9 93 3e
       0.25178754 -0.060998887 -0.019185703 0.28864965
0001b0 de 73 7b bd 43 98 31 3d 02 8a ab bd 6b 4c 7d be
       -0.061389796 0.0433581 -0.08375932 -0.24736182
0001c0 43 e4 b9 3d 39 31 15 3e db 0e ea 3d 52 d0 29 be
       0.090767406 0.14569558 0.11428615 -0.16583374
0001d0 94 ff c2 bc e1 84 a6 bd 7e 77 7a be 44 63 e4 bd
       -0.02380351 -0.081308134 -0.24459645 -0.11151746
0001e0 63 a0 3b be 62 28 43 3d 21 d6 a6 be c2 28 bc bc
       -0.18322901 0.047645934 -0.32585242 -0.022968654
0001f0 05 18 ef 3d 03 ca 09 3e 1e d4 53 be 74 bc 76 3e
       0.11674503 0.13455968 -0.20686385 0.24095327
000200 79 f4 3b be 3b 38 2a be 5f 9d ba 3c 87 64 6c be
       -0.18354978 -0.16623013 0.022780119 -0.23085223
000210 cb a5 63 be 81 b1 a0 3c d1 52 0c 3e 1e cc e7 3d
       -0.22231214 0.01961589 0.13703467 0.11318229
000220 3d e5 0d 3e d5 bc 99 3e 15 39 76 3e 44 d6 8e 3d
       0.13856979 0.3002688 0.24045213 0.06974462
000230 ac 3b 8b be a1 85 2f be af eb 95 3e 86 ad 25 3e
       -0.27193964 -0.17140819 0.29281375 0.16179475
000240 3e ba 8d 3e b8 0d 7c 3e da df 30 be 9c 92 bd 3e
       0.27681154 0.24614608 -0.17272893 0.37025917
000250 38 35 a6 bd ce 89 1f 3e 14 35 57 3c 52 c8 51 be
       -0.081156194 0.15579912 0.013135213 -0.20486572
000260 d7 b3 1b be bf 65 82 3e 2c ef 6e be cc 6f 31 bd
       -0.15205322 0.2546825 -0.23333424 -0.04331951
000270 25 9d 8b bd e2 ad c8 3e 38 09 dc 3d 63 c5 d4 3d
       -0.06817082 0.39195162 0.10743946 0.10389211
000280 88 07 45 be 90 37 d1 be 59 67 8d be 1c e3 98 bd
       -0.19241154 -0.40862703 -0.2761791 -0.07465193
000290 f3 28 68 be 63 5b bb bd 94 05 56 be 45 e7 d4 3d
       -0.22671871 -0.0914829 -0.20900565 0.10395674
0002a0 87 f4 8e be 41 49 72 3d 87 fa b4 bd 9a dc ad 3e
       -0.27920935 0.05915189 -0.08836847 0.33957368
0002b0 52 2a 6a 3e 94 fc b2 3d c9 43 c5 3d cc 07 7e be
       0.22867706 0.08739582 0.096320696 -0.24807662
0002c0 9f c3 18 3d a3 64 9c 3e c4 1b 72 3e 74 89 02 3e
       0.037295934 0.3054553 0.23643404 0.12747747
0002d0 b0 f4 9d 3e 5d 62 43 3e 30 f4 ac be 48 cc 3d be
       0.30850744 0.19080491 -0.3378005 -0.18534958
0002e0 f3 ed c4 3b 2a b3 35 bb c6 e4 1c 3c 7e 38 78 3e
       0.006009811 -0.0027725198 0.009576028 0.242403
0002f0 1a 00 dd 3b 21 76 b3 be 68 81 d3 bd 99 87 bf 3d
       0.006744397 -0.35051063 -0.10327417 0.09352035
000300 d3 bf d7 3c f9 fd c3 bc 54 67 6f bc 76 37 68 3e
       0.026336586 -0.023924815 -0.014612038 0.22677407
000310 57 cc 1f 3d 29 2f 6a 3e 13 44 b3 bc d1 40 9b 3c
       0.039013233 0.22869553 -0.021883046 0.018951805
000320 77 25 b1 3e 34 96 88 3e 8d bf 94 3e 59 7e 8e 3e
       0.34598896 0.26677096 0.29052392 0.2783077
000330 a1 62 90 3e 3e 1f 90 be 04 6b 2e bc 19 6b 43 3e
       0.28200248 -0.28148836 -0.010645632 0.19083823
000340 db ab ab 3e 7b cb 24 3e 39 be 1e 3e e8 52 f2 3d
       0.33529553 0.16093247 0.15502252 0.11832219
000350 84 60 8c bd d1 56 80 3d 74 94 62 3e d0 37 55 3d
       -0.068543464 0.06266559 0.22126943 0.05205518
000360 93 2d b5 bd bb de de 3d 28 f0 93 3c 6c 27 70 3e
       -0.08846583 0.10882326 0.018058851 0.23452538
000370 6a 09 3e be dd 10 31 be d0 b8 9f be e0 a7 66 3e
       -0.18558279 -0.17291589 -0.31195688 0.22524977
000380 a2 76 0b be c6 cb 40 3e 12 70 86 be 5b ad 99 bd
       -0.13619474 0.18827733 -0.26257378 -0.07503768
000390 db 7d ab 3d 18 c8 80 be fc ac ad 3e b7 84 03 3c
       0.083736144 -0.2515266 0.3392104 0.008027247
0003a0 d4 41 ac 3e de 3c 7e 3e 6a 84 5a 3e 37 0d 50 3e
       0.33643973 0.24827906 0.21339574 0.20317541
0003b0 77 90 34 3d 47 05 ba 3d a6 e7 e4 3c 43 d7 84 bd
       0.044083085 0.09083038 0.02794249 -0.064863704
0003c0 ef 9a 28 3e f2 64 af bc 83 a7 fd bd 26 5e 18 be
       0.16465352 -0.02141044 -0.12385466 -0.14879665
0003d0 1f 1a 3c be fa 27 02 be 5e af 3a be bc 10 1e 3d
       -0.1836934 -0.12710562 -0.1823096 0.038590178
0003e0 1b c7 86 3e 79 77 ef bd b0 64 d6 bc f1 c4 93 3e
       0.2632378 -0.116927095 -0.026171058 0.28861192
0003f0 09 71 48 3e bc 14 03 3e e6 5d e7 bd 31 9c b6 3e
       0.1957437 0.12800878 -0.112972066 0.3566604

net.0.bias f4 [256]
000000 cc 69 85 3e 66 4f 32 be 8c 56 8b be 8b 06 0e be
       0.2605728 -0.174131 -0.27214468 -0.13869683
000010 9e 8b 8e 3e 71 cb 25 3e d1 39 3f 3d 0e e0 9d 3e
       0.27840894 0.16190888 0.046685997 0.30835003
000020 dd c0 24 be 1c fc a9 3e 43 f1 f5 3d 1b 5a 67 bb
       -0.16089197 0.33200157 0.12008908 -0.003530151
000030 49 be 61 3e aa 1f d4 bd ae a8 27 3e 17 c6 41 be
       0.22045244 -0.10357602 0.1637294 -0.18923222
000040 63 57 12 3e e9 07 38 be a9 ca 2d be 40 ae e2 3d
       0.14291148 -0.17971767 -0.1697184 0.11068392
000050 39 d8 8e 3e d4 08 0a 3d 2c a8 99 3c f9 8b 66 be
       0.2789934 0.033699825 0.018756948 -0.22514333
000060 70 ec ce bd d5 b9 16 be b7 11 0e be 70 03 29 3e
       -0.101036906 -0.14719327 -0.13873945 0.16505218
000070 83 2f bf 3d 7a 7e 23 3e 3c bb 8b bd 5e f7 48 3e
       0.09335234 0.15966216 -0.068228215 0.19625613
000080 c1 2f 30 be 50 8f 68 3e c0 74 8f be cb 51 7d 3e
       -0.17205717 0.2271092 -0.2801876 0.24738233
000090 7b 58 1b be 37 0b 81 3e 30 9f 42 3e 62 ee 91 be
       -0.15170471 0.2520387 0.19006038 -0.28502184
0000a0 f1 c6 c9 3d 48 b8 9b 3e e8 85 46 3e 61 c8 3a be
       0.09852398 0.30414033 0.19387019 -0.18240501
0000b0 c4 4a 99 be 36 e2 96 be 24 a9 45 3d 88 3f e4 bd
       -0.29939854 -0.2946946 0.04825701 -0.1114493
0000c0 24 24 64 be 20 fd 8a be eb 76 84 3e 98 27 5c be
       -0.22279412 -0.27146244 0.25871977 -0.21499479
0000d0 e4 12 3b be a6 40 b4 3e 19 28 2f 3e 8d 1e 96 be
       -0.18268925 0.35205573 0.1710514 -0.29320183
0000e0 7c 49 97 3e 82 f9 4c be 3a ac 9e 3e b1 c9 a7 bc
       0.29548252 -0.20017055 0.30990773 -0.020481916
0000f0 f5 64 9a 3e 00 f8 3a be 70 11 0a be 6c 04 cf 3c
       0.3015515 -0.18258667 -0.13483214 0.025270663
000100 d8 54 bc bd 2e 18 0c bd 76 5f 23 3e 3e d6 83 bd
       -0.0919587 -0.034202747 0.15954384 -0.06437348
000110 26 f1 7f 3e ed f2 15 be 56 79 83 be 7b 95 9b 3e
       0.24994335 -0.1464345 -0.2567851 0.30387482
000120 97 ca bc bd 28 6f 3c 3d 22 d1 8e 3e 9c 0f 74 3e
       -0.092183284 0.046004444 0.2789393 0.2383408
000130 ec 6c 4d 3d 93 f4 ac 3e b0 24 92 be d4 4d 50 3e
       0.050152704 0.33780345 -0.28543615 0.20342189
000140 d5 9f 11 be a3 7f 37 bd 9c c0 44 be b9 89 f0 bd
       -0.14221127 -0.04479946 -0.192141 -0.117450185
000150 00 40 5f 3e fa fb 29 be f5 11 a1 3e c3 e5 e4 3d
       0.21801758 -0.16600028 0.31459013 0.11176636
000160 bd 9d 90 be 03 7b 77 bd d5 c8 9e 3e f5 9c 64 3e
       -0.28245345 -0.060420047 0.31012598 0.223255
000170 8c 34 0b 3e c2 09 ae bb 57 84 46 3e 47 71 89 be
       0.13594264 -0.005311222 0.19386421 -0.26844236
000180 80 a7 97 be 36 db 83 be ad b2 31 be 19 d9 e2 bd
       -0.2961998 -0.25753182 -0.17353316 -0.11076564
000190 18 95 81 be 57 ea fa 3c 52 43 56 bb 30 14 94 3e
       -0.25309062 0.03062932 -0.0032693935 0.28921652
0001a0 18 83 54 be b6 58 c5 3d 66 67 bd 3e fe ef 64 be
       -0.20753133 0.09636061 0.3699295 -0.22357175
0001b0 db 6e 8e 3e e8 72 68 3d 70 e7 8e bd 43 a8 70 be
       0.2781895 0.05675021 -0.06977737 -0.23501687
0001c0 3f 42 0e be 0c 70 97 3d 60 ae 97 3e 8e e3 04 be
       -0.13892458 0.07394418 0.29625225 -0.1297743
0001d0 65 1d ee bd 46 ba 82 bd a1 7e 8c 3e 36 14 28 be
       -0.116267 -0.06383185 0.2744036 -0.1641396
0001e0 7f 2f 71 be 21 3f 63 be 0c 6b a4 3e a3 31 1d 3e
       -0.23553275 -0.2219205 0.3211292 0.15350966
0001f0 20 1e 6d 3e 4c 1d 81 3e 65 37 46 be d6 56 53 be
       0.23156023 0.25217664 -0.19357069 -0.20638594
000200 74 ba 4f be 61 bf 29 be c1 03 7c 3e 50 9a 88 3e
       -0.2028597 -0.16576912 0.24610807 0.2668023
000210 48 e0 2b be a6 f7 83 be f0 b9 0e be 03 5a 9c bd
       -0.16784775 -0.25774878 -0.13938117 -0.07634356
000220 63 ef 04 3e df c2 00 3e 6a 3d d6 bd e7 7e 5f 3e
       0.12981944 0.12574337 -0.104609326 0.21825753
000230 a0 c8 7c be d9 eb bd bd 22 64 51 3d fe a0 32 be
       -0.24685907 -0.092735 0.051120885 -0.17444226
000240 7f 67 81 be 1b 64 8c bd b2 ef 0a 3e 99 93 98 3d
       -0.25274274 -0.06855031 0.13567999 0.07450027
000250 49 f9 f4 3d 6f 04 7f bd 7b ef fe bd bb 26 20 3b
       0.1196161 -0.062260088 -0.12448021 0.0024437148
000260 96 03 e7 bd 78 40 a3 bc 52 0c 1f bd 06 9a 44 3d
       -0.11279981 -0.019928202 -0.03883011 0.04799845
000270 e5 1d aa 3e 7b 3c 27 3e 91 d9 9b bd 2c a2 82 3e
       0.33225933 0.16331665 -0.07609857 0.25514352
000280 7e c6 d5 3c 22 67 fc 3d 03 ba 17 be 8f 49 01 3c
       0.026095625 0.123243585 -0.14817052 0.007891073
000290 f8 6a 9b 3e 70 3f 4b 3e 5f 2e 60 bd e7 72 9d bd
       0.30355048 0.19848418 -0.054731723 -0.076879315
0002a0 ce a6 10 be a3 24 6f 3e 93 ed 6c 3d b4 1e 39 be
       -0.14126131 0.2335382 0.057843756 -0.18078119
0002b0 79 d2 60 3c af 87 b0 3e cb f0 fd 3a 36 ec 04 be
       0.013722056 0.34478518 0.001937413 -0.12980732
0002c0 f6 dc 8b 3e 3f 04 0f 3c 3b 01 78 be 14 af 11 3e
       0.27317017 0.00872904 -0.2421922 0.14226943
0002d0 d8 c0 fb bd a1 ed 1d be ea 95 82 be d5 08 ad 3e
       -0.122926414 -0.1542268 -0.25505 0.337958
0002e0 4a 10 25 3e cc e6 94 3e d6 d2 e6 bd 2e 0d 7d be
       0.16119495 0.29082334 -0.112706825 -0.24712059
0002f0 bb 3e 88 3d c4 55 06 be 6b e0 8f 3e 97 1a 3c be
       0.0665259 -0.13118654 0.28100905 -0.18369518
000300 bf d4 83 3e 35 5d 8e 3e 53 93 64 3e 50 ec 86 be
       0.2574825 0.27805486 0.22321825 -0.26352167
000310 c8 dd 4d be fa 11 1b 3e 11 ed 9f be db bc 19 3c
       -0.20104134 0.15143576 -0.31235555 0.009383406
000320 63 5a d4 3d a9 d9 5b 3d f4 e1 7a bd 1a 8b 21 bd
       0.103688024 0.053674374 -0.061250642 -0.0394393
000330 cc 3d 02 3e ae 72 9e 3e 92 ec 4c be 17 81 45 be
       0.12718886 0.3094687 -0.2001212 -0.19287525
000340 09 fa b9 3d 91 6c 5d 3e 21 ec b7 bc 29 c8 99 3e
       0.090808935 0.21623446 -0.022451462 0.30035523
000350 cc 9d 97 3e d6 8b 8d 3d 53 36 1b 3e ec 9d aa be
       0.29612577 0.06911437 0.15157442 -0.3332361
000360 62 9c b2 3e d5 12 b9 3e d6 87 9a 3e 96 d5 8c be
       0.34884936 0.3614718 0.3018176 -0.27506703
000370 23 71 82 3e f6 a1 a2 3e c8 4c 4e 3d e2 79 81 3e
       0.2547694 0.3176419 0.050366193 0.25288302
000380 66 cb 9e 3e f6 95 b7 be 7f be 42 3e c2 84 d9 3c
       0.31014556 -0.358566 0.19017981 0.026552562
000390 8c 8b 90 be c2 3d 54 3c fe 7d c3 bd 35 93 ad 3d
       -0.28231466 0.012954177 -0.095455155 0.08475343
0003a0 b4 c3 94 3e 77 f1 fa bd d1 9e fc 3d 81 0d cd 3c
       0.2905556 -0.12253087 0.12334979 0.025030853
0003b0 c1 42 55 bd e6 a8 56 be 1b 0b 44 be 77 97 41 be
       -0.052065615 -0.20962867 -0.19144861 -0.18905436
0003c0 eb 3c a3 bd a2 66 bf 3e ac a1 7d bc ba 6c 6c 3e
       -0.079706036 0.3738299 -0.01548044 0.23088351
0003d0 4c a4 c0 bd cc c7 74 be a9 a8 a0 3e 97 66 43 3e
       -0.09406337 -0.23904341 0.31378677 0.19082104
0003e0 22 dd 80 bc 2e 20 19 3e d2 4d b2 3e 87 77 d8 3d
       -0.015730444 0.14953682 0.34824997 0.10569673
0003f0 22 2e a9 bd 1c 20 a1 be 80 80 af bd a0 c8 30 3e
       -0.08260752 -0.3146981 -0.08569431 0.17264032

net.2.weight f4 [128, 256]
000000 fb 89 65 3d 25 e2 1f bd a1 63 4a bd 99 19 20 bd
       0.05603979 -0.039034028 -0.04941142 -0.03908691
000010 d1 0a b2 3c f2 bc 8c bd 2e 44 ac 3b e4 44 bb 3c
       0.021733673 -0.06871976 0.005257151 0.022859998
000020 a6 ae 4d bd 09 04 00 3d 33 6f 7d 3d 07 7c d1 bd
       -0.050215386 0.03125385 0.061873626 -0.102287345
000030 95 d8 3f 3c 0b 21 bb bb 54 ae dc 3c 53 a8 e4 bc
       0.011709352 -0.005710726 0.026938595 -0.027912294
000040 8b cc d9 3b b6 f6 71 bc 78 db e2 3d a8 00 7e 3c
       0.006646698 -0.014768293 0.110770166 0.015503086
000050 83 6f aa 3d fa ab 1e 3d 95 c0 c0 3c c9 31 15 3c
       0.083220504 0.03873823 0.02352933 0.009106108
000060 ca ad 95 bc 63 37 df bb c8 aa 44 3c ce 88 3f 3d
       -0.018271346 -0.0068120225 0.012003608 0.046761326
000070 87 9f 11 3d 51 9c 0b bd 37 81 a7 3d 72 94 84 3d
       0.035552528 -0.03408462 0.08178943 0.06473626
000080 de 78 9a bc d4 06 5c 3d 96 94 cb 3c ce a2 f0 bb
       -0.018856462 0.05371745 0.024851125 -0.0073436266
000090 7c ba 80 3c 5c 05 ab bb 88 33 01 3d 98 e9 1d 3b
       0.015713923 -0.0052191447 0.031543285 0.0024095532
0000a0 a8 a5 70 bd 1a 99 9b bd 29 15 df 3c c8 9e a3 3d
       -0.058751732 -0.07597561 0.02723177 0.079892695
0000b0 24 f8 9d bc 43 7f 2b bd 3a 2e b3 3d 62 2a 41 3d
       -0.019283362 -0.041869413 0.087490514 0.04715956
0000c0 a2 d2 30 bd 43 7b 6a 3d fd f0 69 3c c5 44 06 ba
       -0.043169625 0.057246458 0.0142786475 -0.0005121942
0000d0 21 cd 0b 3c be 16 98 bd 34 55 05 bd e7 ac 3a 3d
       0.008532793 -0.07426213 -0.03255196 0.04557505
0000e0 ab b1 83 3b e5 e9 de 3b 52 3f 4b 3d 5d 42 5f 3d
       0.0040189824 0.0068027847 0.049620934 0.05450665
0000f0 df 34 0a bd 0d 2a e0 3c fc 11 0c 3c 84 b9 ac bc
       -0.033741828 0.027363801 0.00854921 -0.021084554
000100 19 cb 53 bb 60 e3 98 bd 44 a4 a2 3d 85 23 a1 bd
       -0.00323171 -0.07465243 0.079414874 -0.07868103
000110 76 ee 33 3c 4d ca 13 bd de 70 0d bc 90 fb 04 3d
       0.0109821465 -0.0360816 -0.008632867 0.03246647
000120 f8 53 19 3d 77 6f 34 bd 5c fb ec bc 49 57 8e 3d
       0.037433594 -0.044051614 -0.028928451 0.06950242
000130 4e 72 da 3b 59 b7 91 3d fb 98 85 3d 2a bf 31 3d
       0.006666458 0.07115049 0.06523319 0.0433952
000140 5c 64 84 bc fd 9f 44 bc 6c 34 38 3d e3 7d ed bc
       -0.016161136 -0.012001035 0.04497187 -0.028990692
000150 ec 2e 97 3d 33 5d 13 bd 02 06 74 3d b7 fe 86 3c
       0.073819965 -0.035977554 0.059576042 0.01647888
000160 25 97 a1 ba 60 5d 88 3d e4 ac e0 bc e0 2f 7e 3d
       -0.001232837 0.06658435 -0.02742619 0.062057376
000170 a1 4a 1a bd 96 f4 a9 bc 27 ed 70 bd 7a 39 19 3c
       -0.037668828 -0.02074651 -0.058819916 0.009352082
000180 67 e9 e1 3c 95 67 0c 3d a9 d6 c9 3c 41 0d 8f 3c
       0.027577115 0.03427847 0.02463849 0.017462375
000190 70 dc 3d bd 66 d6 17 3d d3 b7 87 3b 51 5e f5 ba
       -0.046352804 0.0370697 0.0041417866 -0.0018720125
0001a0 3c 01 ab 3d a7 9e 36 bb 28 ab 7e bd cd 50 7d bd
       0.08349845 -0.002786556 -0.062174946 -0.061844636
0001b0 60 1e cf 3d 01 9f 9a bd a8 00 a5 bc 7e cc 93 3d
       0.101132154 -0.07549859 -0.020141914 0.07216738
0001c0 10 98 5c 3d 6f f7 c0 3c 33 a6 82 3d 7c 85 e2 3d
       0.053855956 0.023555486 0.06379356 0.110606164
0001d0 c6 5f 6f 3d b3 e1 f2 3c 48 bf ab 3a 14 5d 9e bd
       0.058440946 0.029648637 0.0013103271 -0.07732597
0001e0 cc 4c 86 3d 7b 87 95 3d 1d 07 51 bd c4 3a 8b 3d
       0.065576166 0.073012315 -0.051032174 0.06798318
0001f0 17 a5 38 bd 2c 88 0b bd f7 49 ba bd d3 5b 88 3d
       -0.045079317 -0.03406541 -0.09096139 0.06658139
000200 e0 3a f1 bc 02 71 5f 3d c3 53 04 3d 15 b5 0d 3d
       -0.02944702 0.054551132 0.032306444 0.03459652
000210 06 a4 5c bd 6d 53 4c 3c d6 c2 ac 3b f2 77 c5 3c
       -0.053867362 0.012471062 0.0052722497 0.024105046
000220 63 79 50 bc 01 b0 76 bc b5 12 9a 3c 70 5d c9 bc
       -0.012724253 -0.015056611 0.018807748 -0.024580687
000230 62 2c 29 3d f6 c0 94 3c 01 66 03 3d a2 be 03 3d
       0.041302092 0.018158417 0.0320797 0.032164223
000240 4f 01 9c 3c 37 aa 34 3d 28 2b ba 3c c0 99 7b bc
       0.019043593 0.044107642 0.022725657 -0.015356481
000250 97 e6 fb 3c 73 a5 07 bd 77 95 8c bc be 57 ad 3d
       0.030749602 -0.03311677 -0.017161114 0.08464001
000260 38 b6 de 3c 4b dd 27 3d 48 4c cb bc 33 bd ad 3d
       0.027186498 0.040982526 -0.024816647 0.084833525
000270 55 46 6f 3d 11 87 34 bd b4 48 75 bc d7 f2 08 bd
       0.058416683 -0.044074122 -0.014970947 -0.033434715
000280 15 3d 69 bd 1f 9a 7b 3b 56 a9 a9 bd c8 dd 70 3c
       -0.056943018 0.0038391424 -0.082842514 0.014701314
000290 ef b8 ab 3c 05 0f ae 3c ac f3 3d 3c 0f ac 00 bc
       0.020962207 0.021247396 0.01159374 -0.007853522
0002a0 85 d1 3a 3c ac 29 bd 3d 2d 19 27 3d 69 45 9b 3c
       0.011402492 0.09236464 0.040795494 0.018953996
0002b0 2c 52 1f 3d 47 69 3e bd 54 f1 94 bd a6 a0 49 bc
       0.038896725 -0.04648712 -0.07272592 -0.012306368
0002c0 9c 97 da bc c8 8f ca bb fb f6 f8 39 ba 54 b1 3b
       -0.026683621 -0.006181691 0.0004748626 0.0054117115
0002d0 b8 ec af 3c 89 79 b6 3d 6e 56 83 bd 33 0c ab 3d
       0.021475181 0.089099 -0.064129695 0.08351936
0002e0 bd ec 32 3d a9 26 88 3d 89 4b c3 3c cd 76 16 bd
       0.043682802 0.06647999 0.023839729 -0.03673439
0002f0 84 b3 98 3d 7d 22 6f bd 21 59 1a ba cc ef ef bc
       0.07456115 -0.0583825 -0.0005887915 -0.029289149
000300 18 8c 01 3d 1a 69 05 bd 24 83 10 3d 30 c9 a2 3d
       0.031627744 -0.032570936 0.035281315 0.0794853
000310 ff 8a f7 bc 3f 77 b2 3d ed ca a0 3c aa 88 b2 bc
       -0.030217646 0.08714151 0.019628013 -0.021793682
000320 f1 4c e0 3c 70 e7 65 3c b1 ee 24 bc 2c af 01 3d
       0.027380439 0.01403223 -0.010066674 0.031661198
000330 2b dc 3c bd 1d 63 d5 bc 3e fd 85 bd 65 01 f0 3c
       -0.046108406 -0.026048237 -0.06542443 0.02929754
000340 0c ca 1c 3c a0 23 b5 3c eb 9e 10 3d 8e 5e 22 3d
       0.009569656 0.022111714 0.035307806 0.039640956
000350 a6 f4 a3 3d af 14 89 3d 64 9e 66 bd 4b cd b0 3c
       0.08005647 0.06693398 -0.056303397 0.021582266
000360 f7 15 80 3d 22 a9 18 bd 05 e2 20 bd 9d 62 1a 3d
       0.062541895 -0.037270673 -0.03927805 0.0376917
000370 53 b2 a4 3d ed 9e 16 bd 8b 65 ad bc aa 55 71 3c
       0.08041825 -0.036772657 -0.021166584 0.014729897
000380 b5 70 61 3d 03 7a 37 bb 02 91 08 bc 5e 71 65 3a
       0.055039126 -0.0027996309 -0.008335354 0.000875255
000390 d4 05 b8 bd 44 eb 93 3d 35 6c 91 3d 79 6c a9 3b
       -0.089854866 0.07222608 0.07100717 0.0051704017
0003a0 bd 06 51 3d e2 55 a8 bd b3 16 16 3d c2 c4 02 bb
       0.051031817 -0.08219506 0.03664274 -0.0019953703
0003b0 bd c1 9f 3c bc f2 83 bc 00 c1 86 bd 1d 60 3f bd
       0.019501561 -0.016106956 -0.065797806 -0.04672252
0003c0 52 c5 1c 3d 46 b7 4e bc bb 78 be bc 6a 12 b5 bd
       0.038274117 -0.012616938 -0.023250928 -0.08841403
0003d0 ae 72 a4 3d f1 f0 b7 bc bb 4c 86 3d 2c b7 e2 3c
       0.08029686 -0.022453757 0.06557604 0.027675234
0003e0 36 dd 85 bc 5a 02 9b 3d 60 34 a1 3c b8 d3 8d 3c
       -0.016340833 0.07568808 0.019678295 0.01731287
0003f0 ea 8b 3c bc d3 be 7b 3d 31 da 50 3d 70 36 f5 3c
       -0.0115079675 0.06146128 0.050989334 0.029933184

net.2.bias f4 [128]
000000 c4 5c 8e 3d 60 77 94 bc a5 46 86 3d c3 1f 43 bd
       0.069512874 -0.018123329 0.06556443 -0.047637712
000010 69 c8 dc ba f5 86 bf bc 16 2d c2 3b b8 a2 3d bc
       -0.0016844395 -0.023379782 0.005925785 -0.01157444
000020 d4 29 99 bc 48 85 95 3d 2f 57 04 bc e5 f5 98 bd
       -0.018696703 0.07300812 -0.008077427 -0.07468776
000030 50 d1 16 3d cd 03 58 3b 21 fb bd bc 01 c2 6e 3c
       0.03682071 0.003296125 -0.023191037 0.014572621
000040 a9 44 82 3d 5e 0e 94 bc d8 09 c7 3c 83 37 0a 3c
       0.06360752 -0.018073257 0.024296686 0.008436087
000050 46 6d e2 bc c3 b0 cf b8 2b 3a 6a 3d db c3 b9 bc
       -0.027639996 -9.9034536e-05 0.05718438 -0.022676399
000060 27 c5 69 3c 7d d8 96 3d 99 07 d4 3b 1a 4c 0f 3d
       0.014268196 0.073655106 0.0064706323 0.034984685
000070 03 13 2e bd db 60 a0 3c 64 30 7b 3d 2e 65 03 bd
       -0.0424986 0.019577434 0.061325446 -0.032078914
000080 84 b6 7f bd 99 85 15 3d 4a 70 51 bd 23 d6 1d bc
       -0.06242992 0.03650436 -0.051132478 -0.009633574
000090 02 2e 85 3d e4 b3 19 bd 48 e9 a1 bc f8 c6 76 3d
       0.06502916 -0.037525073 -0.019764557 0.060248345
0000a0 c2 b7 17 3d d7 75 84 bb 09 30 6e bc d2 ac 8a 3c
       0.03704048 -0.004042368 -0.01453782 0.01692811
0000b0 df 70 49 3d 77 4d a2 bc c1 62 90 bd cb 55 98 3b
       0.049179908 -0.019812329 -0.07050086 0.004648899
0000c0 5c 93 ba 3d 12 cd a4 bc 66 56 bc 3c bb cb 24 ba
       0.09110138 -0.020117316 0.022990417 -0.0006286462
0000d0 7a 6e 80 3d bd bb b0 3c 9e a3 9c 3d e3 ba 8f 3d
       0.06271072 0.021573896 0.07648395 0.07018068
0000e0 81 bb 7b 3d 2b f2 7d bd a5 2b 53 3d 66 14 b8 bb
       0.061458115 -0.061998527 0.051555295 -0.005617666
0000f0 a3 3e c2 3b 37 91 1c bc f2 2f fb 3c 6f 52 82 3d
       0.005927877 -0.009556106 0.03066251 0.06363379
000100 12 91 2b 3c 3f 5e 76 3d 33 63 09 bd 29 4a 9b 3d
       0.010471599 0.060148474 -0.03354187 0.07582504
000110 f6 a4 57 bd 15 a0 81 bd 29 f8 86 3d 2f b5 95 3c
       -0.052647553 -0.06329361 0.065903015 0.018274872
000120 3b f3 05 3d 68 be 84 3c 2e a8 e6 bc 37 38 55 bb
       0.032702666 0.016204074 -0.028156366 -0.0032534727
000130 ac e1 c9 3c 64 91 00 3d 7c 7a 8d 3d 3e 94 2e bd
       0.024643742 0.031388655 0.06908128 -0.042621844
000140 34 25 06 3d e0 8a 2a bd 30 36 87 3c 8c 2e 97 3d
       0.032750323 -0.041636348 0.01650533 0.07381925
000150 d7 a6 7b 3d f5 46 82 bb ec 74 bf bc ec 21 29 3c
       0.061438408 -0.003975744 -0.023371182 0.010323029
000160 80 8d 5e 3c 92 ef b9 bc b1 7c 11 3d 06 cf 21 bd
       0.013583541 -0.022697244 0.035519306 -0.039504074
000170 6b e3 2c 3d 58 1f 9a 3d 62 2a ce 3c 77 47 a2 3c
       0.04220907 0.075255096 0.025166694 0.019809468
000180 3d df 0a bd 56 94 82 3d 61 33 88 3d 4b 58 e0 bc
       -0.033904303 0.06375949 0.06650425 -0.027385851
000190 e1 c2 ee 3c 1c ef 64 bd 61 a5 9d 3d f0 c1 74 3d
       0.02914566 -0.055892095 0.07697559 0.059755266
0001a0 18 f9 8c bc 70 ff 9c 3c 7d 6b ea 3c a8 75 9b bb
       -0.01720862 0.01916477 0.028615708 -0.0047442503
0001b0 5e e8 38 3d e1 de a2 bd 55 ef 93 3d e3 23 15 bd
       0.045143478 -0.07952667 0.07223383 -0.036411177
0001c0 d3 d7 cf 3d 4b 9c 74 3d 1d 34 74 3d c2 de 1e bd
       0.10148587 0.059719365 0.05962001 -0.038786657
0001d0 eb 15 da 3c c2 4d 62 3d 9a a2 da bc f7 29 90 3c
       0.02662178 0.055249937 -0.026688863 0.017598135
0001e0 1c 96 65 bd 3d e5 63 3d c5 15 82 3d 56 14 40 3d
       -0.05605136 0.05563854 0.063518085 0.046894394
0001f0 f0 b8 8a 3d 12 df f8 3c 7f 10 d9 3d 32 c2 a5 3d
       0.06773555 0.030379806 0.105988495 0.080936804

net.4.weight f4 [64, 128]
000000 a1 f5 83 bd 9d 95 ea bc 2b eb 29 3d 67 75 ce 3d
       -0.06443334 -0.028635794 0.04148404 0.100809865
000010 3c ec 10 bd d0 13 7d 3d d9 a8 58 bd b6 18 56 3d
       -0.03538154 0.061786473 -0.0528954 0.05226966
000020 f6 fa 1a be c5 40 65 3c a1 c0 04 3e 26 b5 fa bc
       -0.15134797 0.013992493 0.12964107 -0.030603956
000030 a5 f9 92 3d e5 32 43 3c d5 cd bb 3d f3 62 b8 3c
       0.07176522 0.01191399 0.09170119 0.02250812
000040 de e5 97 3d 24 e9 2f bc 2b 6c 3c bd a9 1a f7 bc
       0.074168906 -0.010736737 -0.046001595 -0.03016408
000050 36 50 86 3d 96 cf 6f 3d 2b 37 ed 3d e4 8f 53 3c
       0.06558268 0.05854758 0.11582788 0.012912724
000060 52 91 0c 3c 7d 48 ea bc d9 c6 69 3d f5 48 93 3d
       0.008579569 -0.028599018 0.0570744 0.0719165
000070 fb 9a b0 3c 6c cd a4 3d a4 5d 8b ba fb 97 43 3d
       0.021558275 0.080469936 -0.0010632765 0.04775236
000080 5c 3f 1a bd 8a 37 b4 3c f9 45 20 3d c6 12 03 3d
       -0.03765808 0.02199914 0.03912923 0.032000326
000090 b2 e6 16 bd 2a f8 14 3e 7a c6 a0 3c b7 d6 85 bd
       -0.036841102 0.14547792 0.019625891 -0.06535094
0000a0 cf 89 b4 3c 07 3c c9 3c b7 3e 03 3d 5b 07 38 3d
       0.022038369 0.024564756 0.03204223 0.04492889
0000b0 e9 1d bf bd c5 a7 b5 bc 3d 14 35 3d 60 dd c1 bd
       -0.09331877 -0.022174725 0.044208754 -0.09466052
0000c0 53 ab 3e bd 1e a5 6a bd dc 84 0b 3d f4 ae 51 3c
       -0.046550106 -0.057286374 0.03406225 0.01279806
0000d0 dc 64 e3 3c 05 e8 96 3b 9b bf 15 3d c8 ee a0 3d
       0.027758054 0.0046052956 0.036559682 0.07858044
0000e0 b0 fe 5e 3d 7a 08 3d bd e4 2b b8 bb 79 9f 12 3d
       0.054442108 -0.046150662 -0.0056204665 0.035796616
0000f0 8c bb 67 3d 52 19 8a 3d 7d 27 27 3c c3 89 00 3d
       0.056575343 0.06743111 0.010202286 0.03138138
000100 02 67 06 3d 6a 66 0c 3c 69 67 71 3d 8b e6 17 3d
       0.03281308 0.008569339 0.05893651 0.037085097
000110 18 e4 7d 3a 81 b3 bb 3d 9b ea a8 3d d0 3e d6 bd
       0.00096851727 0.09165097 0.082478724 -0.10461199
000120 0d 4a a4 bc 40 aa b9 3d a1 bc 23 3c 86 c8 88 3d
       -0.020054841 0.09065676 0.009993703 0.06678872
000130 38 77 bc 3d 01 38 ff bc ac 8e 3d 3d 98 5b 57 3d
       0.09202427 -0.031154634 0.04627864 0.052577585
000140 1a 7c 55 3d 01 f8 ad 3d f8 81 a0 bd ab 47 93 3d
       0.052120306 0.084945686 -0.078372896 0.07191404
000150 41 12 47 3d 6f 0a 25 3d a0 25 3e bb 1e f5 f6 3d
       0.048601393 0.040293153 -0.0029014125 0.12058471
000160 bf 5f bb 3d eb f8 c0 3d b5 72 03 3d ad ca c3 bd
       0.091491215 0.09422477 0.032091815 -0.09560142
000170 22 c5 24 3d 34 a4 e6 bc b0 a0 2e 3a 23 b6 1c 3d
       0.040227063 -0.02815447 0.00066615175 0.038259637
000180 86 22 14 be 11 3c ee 3d 42 3b dc 3c c3 62 dd 3c
       -0.14466295 0.116325505 0.026883725 0.027024632
000190 7b 0f 7a bb c8 01 55 bd 64 d6 20 3d 6f 27 4e 3b
       -0.00381562 -0.05200365 0.03926696 0.003145661
0001a0 c1 17 be bd ea 96 ac bd e3 77 d2 3d 49 a1 81 3d
       -0.092818744 -0.08427222 0.10276773 0.06329591
0001b0 c8 03 89 3d a4 23 96 bd f3 0d c0 3d 1d 29 a7 3d
       0.06690174 -0.07331017 0.093776606 0.081621386
0001c0 dc 69 89 3d d5 8d 87 3d ad 73 94 3d 7c dd 27 3d
       0.06709644 0.06618849 0.07248626 0.04098271
0001d0 42 d3 12 bd 40 f2 b5 3d 0a 54 0e bd bd 26 52 3d
       -0.035846002 0.08884096 -0.034748115 0.051306475
0001e0 9d 2b d1 bd fa f6 95 3d 1d 2e 46 3d d2 0e 5d 3b
       -0.10213397 0.07322498 0.04838382 0.0033730757
0001f0 d0 44 6a 3d 36 9c 1d 3b 91 2f ef 3d 17 62 ba 3d
       0.05719453 0.0024049408 0.116789944 0.091007404
000200 ba e6 44 3c 8d fd 3f 3d 31 a7 f0 bc 00 ea 29 3b
       0.0120179 0.046872664 -0.029376598 0.0025926828
000210 43 78 70 bd cc fb bd 3d 22 64 82 3d 0c 14 de 3d
       -0.05870844 0.09276542 0.06366755 0.108436674
000220 38 67 44 bd 8a 42 9a bc 0f 63 97 3d 94 9a 23 3d
       -0.04795 -0.018830556 0.07391941 0.03994234
000230 21 7f 06 bc 49 27 59 3d 5b 60 80 3c c6 3a 51 bd
       -0.008209021 0.05301598 0.015670946 -0.05108144
000240 f7 a7 2f bd 1b db 52 bd c9 30 fa bd 6c ec 95 bd
       -0.042884793 -0.051478487 -0.12216336 -0.073204845
000250 ec f5 4e 3d 1f e1 d0 3d e2 03 10 3d f4 7b dd 3c
       0.050527498 0.101991884 0.035159953 0.027036645
000260 0a 88 73 bd 1f 9c 3e bd 46 d6 8c bd 57 96 e1 3d
       -0.05945591 -0.046535607 -0.06876807 0.11015003
000270 59 6a 84 3d 1c 13 99 3d c1 fe 88 3d 9a 13 df 3d
       0.06465597 0.07474348 0.066892155 0.108924106
000280 4d 51 5e 3c bd 82 87 3d 0b 0f dc bd 16 63 ac 3d
       0.013569188 0.06616733 -0.10745057 0.08417337
000290 3b c9 07 3d a8 63 c7 3c ac 08 aa bd 21 33 0c bc
       0.033150893 0.024339512 -0.08302435 -0.008557112
0002a0 f0 b6 a4 3c e2 f7 43 3d 10 fb 09 3c 0d 99 fa bc
       0.020106763 0.04784382 0.008421674 -0.030590558
0002b0 d8 e8 5a 3c a4 e1 ee 3c 31 a3 2c bd 2e 4b 4d bd
       0.013361178 0.029160328 -0.04214782 -0.050120525
0002c0 ff 2a 80 3d 99 dd e5 3d af 89 8a 3d b4 31 8f 3d
       0.06258201 0.11223907 0.06764542 0.06991902
0002d0 a1 0c f6 bb 37 d3 8e bd 1d be 59 bd ad fc 97 3c
       -0.0075088297 -0.0697388 -0.05315982 0.018553102
0002e0 8f 9f cf 3d ab 30 e2 3d f5 4d 87 bd c6 dd 41 3d
       0.10137855 0.11044439 -0.06606666 0.04733064
0002f0 55 24 2c 3d 31 07 2f 3d c4 92 1d 3d 52 84 83 bd
       0.042026836 0.042731468 0.038470045 -0.064217225
000300 4e 39 83 3d 42 e9 96 ba f8 e5 89 3d 3e 35 59 bd
       0.064074144 -0.0011513608 0.06733316 -0.05302929
000310 61 f2 5a 3d a5 9d 8e 3c 43 9c ac bd 0c e7 2c 3c
       0.053453807 0.017409155 -0.08428242 0.010553133
000320 95 83 9d 3d 87 7c 8c 3d 0c 82 8a 3d 5c 3d 4a 3d
       0.07691113 0.06859689 0.06763086 0.049374923
000330 3e 3e 95 bc c6 cf b4 bd bd 3a 66 3d fe 3c d6 3b
       -0.018218156 -0.08828692 0.05620836 0.0065380326
000340 87 70 16 3c 63 8d 79 3d e0 be 41 3c db 9a 87 bd
       0.009182102 0.060925853 0.011825293 -0.06621333
000350 a2 e3 82 bd 01 45 10 bd 83 59 46 3d 15 04 3a bc
       -0.06391074 -0.035222057 0.04842521 -0.011353512
000360 7f 17 bd bc 5f 60 98 3b 6f 21 df 3d b5 61 76 bd
       -0.023082493 0.00465016 0.10895049 -0.060151774
000370 ca cf 2d 3d d7 23 66 bd da a3 a3 bd d7 ba 26 bd
       0.04243449 -0.056186523 -0.079902366 -0.040705528
000380 a7 a5 f0 bd ca ae ad bc 6e 88 0e 3d af c3 24 3c
       -0.11750346 -0.02120151 0.03479808 0.01005642
000390 d8 ae 52 3d 3d 0b b6 bd f5 25 53 3c 1e 81 ab bd
       0.051436275 -0.08888862 0.012887468 -0.083742365
0003a0 18 f6 11 ba 6b 25 f6 bd 87 7e e6 3d dd 40 c8 bd
       -0.0005567982 -0.12018856 0.11254602 -0.09777997
0003b0 70 92 c1 39 19 5e 2e bd 05 23 c1 3c 37 0a 94 bd
       0.00036920933 -0.042570207 0.023576269 -0.07228511
0003c0 cc 35 54 3d e5 b9 fe bc ba 4e 52 bc cb 6a f3 3d
       0.051809117 -0.0310945 -0.012836153 0.118856035
0003d0 22 16 52 bd 39 b4 aa 3d c7 d7 88 bc e4 3a 04 3d
       -0.05129064 0.08335156 -0.016704453 0.032282725
0003e0 1c 0e ea 3c 12 cb c9 3d b9 24 ee bc fe 02 4c bd
       0.028571181 0.09853186 -0.029070245 -0.04980754
0003f0 31 8b c2 3c 84 6c 92 bd 7e 8a be 3d 54 eb b8 3d
       0.023748012 -0.07149604 0.09303759 0.0902926

net.4.bias f4 [64]
000000 79 14 57 3c 7c 28 48 bc ab 1f 59 bd 78 67 37 bc
       0.01312744 -0.0122166835 -0.053008717 -0.0111941025
000010 eb 6f a9 3d ef a1 e8 bc 67 29 53 3d 6e 6b cc 3c
       0.082733 -0.028397528 0.051553156 0.02495357
000020 c5 bf 76 bd d0 04 d7 3d f8 2a dc bc ba b2 f1 3c
       -0.06024148 0.10498965 -0.026875958 0.029504169
000030 30 47 90 bc 0e ae 63 bd c7 84 8b bc 31 09 da 3c
       -0.01761207 -0.055585913 -0.017031087 0.02661571
000040 aa dd c8 3c 9e 97 3b 3d 42 14 37 3d aa f2 92 3d
       0.02451976 0.04579889 0.044697054 0.07175191
000050 e5 71 6b 3d 8f c7 6b 3d 94 d9 92 bc b7 1a 04 3d
       0.057481665 0.05756336 -0.017926015 0.03225204
000060 4a a0 80 3d 52 b6 2a 3d 60 e4 08 bc 7c eb 28 bc
       0.06280573 0.04167778 -0.00835523 -0.01031005
000070 e4 09 40 3d 8c a3 8f 3d ce 63 cc 3d cf 0c 57 bd
       0.046884432 0.07013616 0.09979974 -0.05250245
000080 39 29 a2 bc 7b 61 93 3d e7 e3 67 3d b1 1a df bd
       -0.019795047 0.07196327 0.05661383 -0.10893763
000090 57 b5 00 b8 e0 45 46 3d e3 29 42 bc a1 44 21 3c
       -3.0686464e-05 0.04840648 -0.011850807 0.009843023
0000a0 1e eb cf 3d 07 76 e8 3c cd 78 90 bd 40 67 22 3d
       0.10152267 0.028376592 -0.07054291 0.039649248
0000b0 32 51 a5 3d d9 bf 8b 3d ea 49 5d bd 81 d9 b6 bd
       0.080721274 0.068237014 -0.054025568 -0.08928204
0000c0 5b 3b 74 3d f3 19 2e 3d b9 52 08 bc 15 a8 1f 3d
       0.05962692 0.042505216 -0.008320504 0.038978655
0000d0 c0 bb 18 bd 34 13 1f 3d e2 d8 b1 3c 4e 62 9d 3d
       -0.037288427 0.038836673 0.021709863 0.07684766
0000e0 26 3f e0 3d 16 02 bc 3d ae 41 e8 3c cc 3b c6 bd
       0.109495446 0.09180085 0.028351631 -0.09679374
0000f0 7d 14 a1 3b 81 c7 97 3d 82 24 2a bc 32 e6 88 3c
       0.0049157725 0.07411099 -0.010384681 0.016711328

net.6.weight f4 [10, 64]
000000 1f ce 28 bd b9 63 97 bd f5 8d f3 3d a5 cc ac bd
       -0.041212197 -0.073920675 0.118923105 -0.0843747
000010 4b 34 1d 3e 9a d0 3a bc 14 90 54 3d 47 83 5d 3d
       0.1535198 -0.011402274 0.051895216 0.054080274
000020 9c a8 6b 3d 4d 05 75 bd 18 03 ae 3c 5a 31 cd 3d
       0.057533845 -0.05981951 0.02124171 0.10019179
000030 23 7d 74 3d 73 ad d3 3d 5c 1f 04 be e7 32 e0 3d
       0.059689652 0.10335817 -0.12902588 0.10947209
000040 d5 b1 b1 3d a4 b3 4e 3d 09 2b 18 3e 88 2b c7 3d
       0.08676497 0.050464287 0.14860167 0.097251
000050 b4 cb 25 3e 7d 6a 76 bd cd b5 1d bd 80 01 f7 3d
       0.16190988 -0.06016015 -0.038503457 0.12060833
000060 5b 1a b7 3d c9 52 08 3e e1 86 9d 3d 54 71 3c bd
       0.08940574 0.1331283 0.07691742 -0.046006516
000070 fa 8c 4f 3d 8c 97 f3 3d 09 8f a7 bc c5 15 4f 3d
       0.050671555 0.1189414 -0.020453947 0.05055787
000080 fe 7c 92 bc b2 1d 80 bd 4b 98 bf ba 95 9c bd bd
       -0.017881867 -0.06255664 -0.001461753 -0.09258381
000090 d0 35 0c 3e 05 a6 02 3e 5b e6 a2 3d 77 25 81 3c
       0.13692403 0.12758644 0.07954093 0.015764935
0000a0 02 6f 18 3e 8e ae 14 be 35 4a 8a 3d b7 f0 1d 3e
       0.14886096 -0.14519712 0.06752435 0.15423857
0000b0 d5 12 07 3d b4 4e 6a bc bf ef 48 bd 9c 26 27 3d
       0.032976944 -0.014300991 -0.049056765 0.040808305
0000c0 1e 6d dc bc 92 a1 c0 bc b0 5a 30 3e 32 f3 9d 3d
       -0.0269075 -0.023514543 0.17222095 0.077124014
0000d0 fa 57 0c 3d b0 a3 b0 bd b5 5e dd bd 52 04 85 bd
       0.03426359 -0.08624971 -0.108090796 -0.06494965
0000e0 85 50 24 3e 99 e3 a2 3d 4e 46 74 3d d4 7f cb bd
       0.16046341 0.07953567 0.05963736 -0.09936491
0000f0 cd a5 2a 3b 19 b1 07 be 7e ed eb bd e7 4a f3 3d
       0.0026038766 -0.13251151 -0.115199074 0.11879521
000100 26 a7 bf 3d 4e e9 73 bd ea a9 6b 3d 89 eb 8b bd
       0.09358053 -0.05954867 0.05753509 -0.06832034
000110 15 b7 b9 3d 40 59 2d be aa 85 1e be d2 fb 05 3e
       0.09068123 -0.16928577 -0.15480676 0.13084343
000120 b8 e7 22 3e 0b 32 be bd 5e e7 ef 3d 0d bb 87 3d
       0.15908706 -0.09286889 0.11714052 0.06627474
000130 72 fb 83 3d c7 1c 48 3d b1 54 22 3d 66 8e 9e bd
       0.06444444 0.04885557 0.03963155 -0.07742004
000140 48 50 1f 3d 04 db 0c 3e 24 69 c7 bd d3 5f c5 3d
       0.03889492 0.13755423 -0.09736851 0.09637418
000150 45 c4 ac 3d 6e c0 af 3c 33 c3 ff bd ae 63 74 3d
       0.08435873 0.021454062 -0.12488403 0.059665374
000160 c3 6b db 3d e7 7c 1b 3e 1a 47 85 bc 7f a4 a2 bd
       0.10713913 0.15184365 -0.016269255 -0.079415314
000170 77 14 18 be e7 40 0b be ea 6e 61 3b 32 d8 aa 3c
       -0.14851557 -0.13598977 0.0034398385 0.020855043
000180 cc 40 ff bd 2b a3 44 3d 8d 7d eb bd fc 55 d3 3c
       -0.12463531 0.04800717 -0.11498556 0.025797836
000190 1e b9 a5 3d 5e b1 0f 3e cb d9 b5 bd b1 c1 c5 3d
       0.08091949 0.14032504 -0.08879431 0.09656084
0001a0 80 13 27 3e 8b e0 2f be 62 6f db bd 5f c6 c6 bd
       0.16316032 -0.171755 -0.10714604 -0.09705805
0001b0 83 d3 b6 3d 2a 4e 20 bd 2a a7 47 bd aa f5 e9 3b
       0.089270614 -0.039137043 -0.048743404 0.007139881
0001c0 9c 09 b2 bd d6 43 b3 bd 55 3f 04 3e 4e 74 53 3c
       -0.08693239 -0.08753173 0.12914784 0.012906147
0001d0 50 cf 45 3d 08 f3 c8 bd c7 c0 b1 bd d9 f5 e3 3d
       0.04829341 -0.098119795 -0.086793475 0.11130876
0001e0 0d c4 cd bc 7d c0 54 3d b7 eb fc 3d 87 de 0c 3e
       -0.025117898 0.051941384 0.123496465 0.13756762
0001f0 59 54 0a 3d f0 1e ed 3c 24 d6 97 3d 88 44 57 3e
       0.033771846 0.028945416 0.07413891 0.21022236
000200 9f c0 db bc 4c ae 84 39 08 9f 6d 3b 0f 2f 30 bd
       -0.026825247 0.00025306863 0.003625812 -0.04301363
000210 85 e4 6e 3d d1 88 1d be 0d b7 ce 3d bb 1d b3 bd
       0.058323402 -0.15384223 0.10093508 -0.08745905
000220 41 0a 0b 3e 0f aa 57 3d 20 5e 77 3d 1c 93 23 3e
       0.1357813 0.052652415 0.0603925 0.15974087
000230 0e 6f d3 bd 7c 58 94 3d 57 0d e6 bd d0 64 93 bc
       -0.103239164 0.072434396 -0.11233013 -0.017992407
000240 b4 8a 81 bd 5e ec 04 3e 18 bd 33 3d 1e 52 a3 bd
       -0.06325284 0.12980792 0.043881506 -0.07974647
000250 21 99 98 3d a2 05 62 bc cd 7a ab 3b 4a 01 2b 3c
       0.07451082 -0.013795288 0.005233145 0.010437319
000260 02 ed af 3d f1 7f 89 bd 06 1f 15 3e 52 bb 7e bb
       0.085901275 -0.06713856 0.14562616 -0.0038868976
000270 ef 3e 03 be e2 17 dc bd 5f 95 11 3e f5 29 a1 3d
       -0.12816976 -0.10746743 0.14217137 0.07869331
000280 6f 9c 9e bc 7b f1 7c bc 20 23 1c be f4 64 1c be
       -0.019361703 -0.015438433 -0.15247774 -0.15272886
000290 54 87 d1 3d a0 ea 4b 3d 25 4d 00 3e 72 ec bb 3d
       0.1023089 0.049784303 0.12529428 0.09175958
0002a0 82 5d 17 3e 1a 95 20 be 56 86 c0 bb 2b a0 0f bd
       0.14781764 -0.15681878 -0.005875389 -0.035064857
0002b0 d4 87 5c bd 9a b0 97 3d be 4e be 3c ee 41 06 bd
       -0.053840473 0.07406731 0.023230907 -0.03277772
0002c0 3a 76 fe 3d 57 10 15 3d e4 96 07 3e 2d 1b 89 bc
       0.12424894 0.036392536 0.13241154 -0.016736591
0002d0 35 d0 d2 bd 14 a0 92 3c 5a 1d 23 be 6c 6e 0e 3d
       -0.102936186 0.017898597 -0.15929165 0.034773275
0002e0 f1 10 1a 3e 4c aa 18 3d e0 77 26 3e 72 71 2f be
       0.15045525 0.037271783 0.16256666 -0.1713312
0002f0 65 8a f0 bd 3d 5b 00 be bc 33 2b bd 37 a6 e7 bd
       -0.11745147 -0.12534805 -0.041797385 -0.11311
000300 bd cb 96 bc 09 18 9f bd 46 a4 b2 bd e1 8c 06 3e
       -0.018407697 -0.07768256 -0.08722739 0.13139679
000310 43 d2 d7 bc b4 da 27 3e 0f dc 35 3d 27 02 0a 3e
       -0.026345378 0.16392022 0.044399317 0.13477384
000320 e3 19 83 3b e1 9a 29 3e e4 ef 48 3d a7 8e 2e 3d
       0.0040008887 0.16562988 0.049056903 0.042616513
000330 8c 68 1e bd 07 4e 90 ba e4 f7 ae 3d fc 72 f9 bd
       -0.038673922 -0.0011009582 0.08543375 -0.12180135
000340 b5 06 ad 3d ea f6 d8 3d e2 69 ca bd 5f 1a 48 3d
       0.08448545 0.1059397 -0.09883477 0.048853274
000350 8f 89 19 3e 2f d3 c7 3d f7 c6 f2 3c 5a 88 aa bd
       0.1499388 0.09757077 0.02963589 -0.08326788
000360 ed 6c ee bc 9e eb 21 bc ef 75 2f 3e e1 58 7c 3e
       -0.029104674 -0.009882836 0.17134832 0.2464328
000370 9f 32 1b bd 5c 23 05 bd e9 6c ff 3c 91 db 0f 3e
       -0.037890073 -0.032504424 0.031179862 0.14048602
000380 ba a8 18 bd dc a8 c8 bd 35 0f 41 be 24 1c 23 3c
       -0.037270285 -0.09797832 -0.18853457 0.00995544
000390 ff 80 41 3d c4 aa 34 bc 40 e6 20 bc a7 b2 ed bd
       0.04724216 -0.011027042 -0.009820521 -0.11606341
0003a0 c7 4b e1 bc dc 2e f1 bd 8c 1c db bd ca c7 32 bd
       -0.027501954 -0.11776516 -0.10698804 -0.043647565
0003b0 bc 05 ad 3c 2c 53 29 bd 9f 0b c0 3d 87 84 f0 bd
       0.021120898 -0.041339085 0.093772165 -0.117440276
0003c0 47 54 54 3e 83 46 04 3d 62 2e 98 bd 53 b6 71 bd
       0.20735274 0.032293808 -0.07430722 -0.05901177
0003d0 5e 0f 41 bd 2e ba bd bd c1 c0 0e 3e a0 c0 9c 3d
       -0.047133796 -0.092640266 0.13940717 0.07653928
0003e0 00 1b 07 3e 93 3b 85 3d ca 93 32 bd 23 8f 18 be
       0.13193893 0.065055035 -0.043597974 -0.14898352
0003f0 f1 65 83 bd b2 0f 36 3e 3c fe 6f 3d 3b 18 f3 bd
       -0.06415928 0.17779425 0.058592066 -0.11869856

net.6.bias f4 [10]
000000 73 5f 8c bd 5f 2e 2d 3d 09 78 e4 3d 08 41 26 3d
       -0.06854143 0.04228055 0.111557074 0.040589362
000010 4a 6d 0d bd f7 d5 0a 3e e1 e9 7a 3c b9 a8 c2 3d
       -0.034528054 0.13558184 0.01531455 0.095048375
000020 46 eb 16 3d b4 43 a4 bc
       0.036845468 -0.020051815
